agent_0_critic.pt (torch_old, 48441 bytes, 7 tensors)

__linear_0.weight f4 [64, 52]
0.22235464 -0.4539577 0.06766193 0.25371993 0.4988901 -0.20547338 -0.08822707 0.092273414
0.23679204 -0.26387328 0.06564314 -0.028568199 -0.32835764 0.06857966 -0.035599757 -0.12054872
0.5894938 -0.43355915 0.0014791943 -0.21428268 -1.8206148 0.024294123 0.10229981 -0.048605934
-0.019591453 -0.20098892 -0.08064099 -0.104455754 -0.42802233 -0.19636954 0.08241168 -0.20734492
-0.15233098 -0.19490832 0.08755021 -0.088241205 0.25474653 -0.008093388 -0.026172124 -0.08630571
0.21179044 -0.25664583 -0.038702097 0.16587077 1.7822647 0.14931612 0.018855486 0.2226574
1.4482521 -0.5319245 -0.07492824 0.59978974 -0.029415471 0.21383551 -0.042846132 0.11305236
0.20215899 -0.8768042 -0.0645877 0.104512446 0.087044604 0.12349103 0.1986284 0.05685812
0.05402767 -1.6118935 0.08054751 0.018949123 0.0455001 0.031522833 0.043754265 -0.05216061
0.62088746 -1.6350999 0.03142904 -0.0484231 0.6899678 1.3996433 0.17865612 0.41538614
-0.02015354 -0.93073326 0.25995958 0.31965876 0.9473751 1.5831796 0.10707199 0.5434017
-0.055821232 -1.4161788 0.0024036039 0.5838959 1.076532 1.5605245 -0.2149453 0.14774017
-0.6109212 -1.8868301 -0.27826902 0.060167428 -0.46535558 0.7412766 0.14902046 -1.0989945
-0.21795349 0.117128305 0.039015677 -0.20938005 -0.34908864 0.45488626 -0.0395671 -0.050778456
-0.26577428 0.2574486 -0.084622085 -0.09964261 0.2054901 -0.27248755 -0.13655236 -0.13303636
-0.039732184 0.1942801 0.03180259 -0.2685831 1.365001 -1.8532802 0.016141828 -0.33304086
-0.23878644 0.22780736 -0.11854602 0.21082179 0.25032 0.36014742 0.030908585 0.20483492
-0.14723414 -0.03722609 0.045555398 0.07781831 -0.13626294 -0.021887174 -0.018039068 0.08697312
0.08873338 -0.32986873 -0.0706107 -0.8227957 -1.320179 -1.8566109 0.03898769 -0.73008674
1.2898984 -0.8058719 -1.8129766 -1.9001194 -0.102131695 -0.021922935 0.02723089 0.12393
-0.66984415 0.18694468 -0.052004915 -0.02882364 -0.026470287 0.19593024 0.011724656 -0.13525018
-0.052632473 -0.5914877 0.002050522 0.011812595 -0.09125177 0.21961246 0.07135611 -0.29695806
0.52688825 -2.8987417 -0.09164647 -0.14028813 -0.1492616 1.3490279 -0.0043257466 0.4042381
0.74875593 0.035277233 0.022140365 0.20769209 -0.030104686 1.6437055 0.05286969 0.97272193
0.06805832 -0.5598467 -0.017341081 1.0871438 0.002121299 1.8263664 0.102250524 0.8841373
-0.54357994 -3.005435 0.020283747 0.8320142 0.47058424 0.19485435 0.4316136 -0.75550723
-0.21591297 -1.0715188 0.06787443 0.17920761 0.40436634 -0.9631573 -0.09761202 0.21271369
-0.2790252 -1.2823676 -0.016565327 0.14231326 0.14328445 -2.2246249 -0.11768234 0.3816153
-0.25512764 -1.2175156 0.005554968 -0.11629906 -0.16578458 -0.8851963 -0.021995606 -0.06316683
-0.17636976 -0.0004929954 0.05508534 0.5094359 -0.33217886 -1.0129899 0.15017633 0.4838657
-0.20709842 0.0853551 0.040614907 0.8999394 -0.13368024 -2.3790557 0.10677634 0.82808256
-0.027958408 0.09630959 -0.077312365 1.1070573 0.17958243 -0.85144067 0.08324288 1.141439
00000000: efb0 633e 256d e8be 5792 8a3d 94e7 813e
00000010: 866e ff3e 9d67 52be 65b0 b4bd d8f9 bc3d
00000020: 9d79 723e 661a 87be e96f 863d db07 eabc
00000030: 7e1e a8be 7e73 8c3d 0dd1 11bd 3fe2 f6bd
00000040: 11e9 163f 77fb ddbe 86e1 c13a eb6c 5bbe
00000050: e809 e9bf 7804 c73c 9082 d13d 0417 47bd
00000060: 417e a0bc 0ad0 4dbe 1a27 a5bd e6ec d5bd
00000070: be25 dbbe 1915 49be 74c7 a83d 3a52 54be
00000080: a7fc 1bbe 0c96 47be 864d b33d ceb7 b4bd
00000090: 236e 823e 219a 04bc ec66 d6bc 0cc1 b0bd
000000a0: 98df 583e 1567 83be 1786 1ebd 07da 293e
000000b0: 4021 e43f 53e6 183e d276 9a3c 4d00 643e
000000c0: 5360 b93f 342c 08bf fa73 99bd d28b 193f
000000d0: b7f8 f0bc b2f7 5a3e 6d7f 2fbd ff87 e73d
000000e0: c402 4f3e 3d76 60bf 8e46 84bd 9f0a d63d
000000f0: 7144 b23d dde8 fc3d 3e65 4b3e 0fe4 683d
00000100: 1e4c 5d3d 8752 cebf 18f6 a43d 313b 9b3c
00000110: 505e 3a3d 161e 013d ac37 333d 5da6 55bd
00000120: 7bf2 1e3f f44a d1bf bdbb 003d 4d57 46bd
00000130: bba1 303f 8327 b33f a1f1 363e 7ead d43e
00000140: 0919 a5bc 8944 6ebf 6c19 853e 50aa a33e
00000150: 2d87 723f a1a5 ca3f 8f48 db3d 601c 0b3f
00000160: cea4 64bd 5945 b5bf c885 1d3b 347a 153f
00000170: cdcb 893f 44bf c73f 9f1a 5cbe 3349 173e
00000180: 5565 1cbf a683 f1bf 4779 8ebe 1f72 763d
00000190: 1643 eebe 4ec4 3d3f d298 183e daab 8cbf
000001a0: 332f 5fbe f7e0 ef3d e7ce 1f3d b967 56be
000001b0: bfbb b2be dae6 e83e 1d11 22bd 12fd 4fbd
000001c0: 9113 88be 4ed0 833e 584e adbd 6d11 ccbd
000001d0: ff6b 523e 7d83 8bbe 62d4 0bbe af3a 08be
000001e0: 37be 22bd 5df1 463e 6f43 023d b983 89be
000001f0: 5ab8 ae3f 4938 edbf de3b 843c 5584 aabe
00000200: 6f84 74be 5546 693e 41c8 f2bd abe1 573e
00000210: f129 803e 3e65 b83e 0034 fd3c 3fc0 513e
00000220: 8cc4 16be 627a 18bd 4c98 3a3d 355f 9f3d
00000230: 8388 0bbe bb4c b3bc abc6 93bc f71e b23d
00000240: d9b9 b53d 8ee4 a8be 589c 90bd bda2 52bf
00000250: a0fb a8bf 6da5 edbf 8eb1 1f3d f7e6 3abf
00000260: 641b a53f 9f4d 4ebf 9e0f e8bf 1d37 f3bf
00000270: 6c2a d1bd ba97 b3bc 5113 df3c 03cf fd3d
00000280: e87a 2bbf 6d6e 3f3e 1b03 55bd 8e1f ecbc
00000290: 37d8 d8bc f0a1 483e c618 403c 067f 0abe
000002a0: 2695 57bd bd6b 17bf 0d62 063b 9d89 413c
000002b0: 35e2 babd 17e2 603e 2723 923d e30a 98be
000002c0: 26e2 063f fc84 39c0 25b1 bbbd b1a7 0fbe
000002d0: 08d8 18be f2ac ac3f febe 8dbb 4cf8 ce3e
000002e0: 78ae 3f3f dc7e 103d b65f b53c 3cad 543e
000002f0: 1a9e f6bc f164 d23f e38d 583d 4e04 793f
00000300: 2962 8b3d 1d52 0fbf e20e 8ebc 8727 8b3f
00000310: 7e05 0b3b 60c6 e93f b968 d13d d256 623f
00000320: 0e28 0bbf 0c59 40c0 1a2a a63c e2fe 543f
00000330: 6bf0 f03e e687 473e 75fc dc3e ec68 41bf
00000340: 4a18 5dbe 8727 89bf c001 8b3d 3382 373e
00000350: 1b09 cf3e 7a91 76bf d0e8 c7bd 9ed1 593e
00000360: 64dc 8ebe 9f24 a4bf 02b4 87bc 91ba 113e
00000370: 29b9 123e 4160 0ec0 7003 f1bd 1563 c33e
00000380: 17a0 82be 8dd7 9bbf 7306 b63b 342e eebd
00000390: 6fc3 29be 3a9c 62bf 2130 b4bc 9c5d 81bd
000003a0: 469a 34be 5c3c 01ba 2aa1 613d 646a 023f
000003b0: 5913 aabe a7a9 81bf d3c7 193e 3fbd f73e
000003c0: 9c11 54be a8ce ae3d d15b 263d 6e62 663f
000003d0: 79e3 08be 7342 18c0 8ead da3d 38fd 533f
000003e0: 0809 e5bc f63d c53d f255 9ebd 0eb4 8d3f
000003f0: 75e4 373e 04f8 59bf 3e7b aa3d ac1a 923f

__linear_0.bias f4 [64]
-0.74544084 -0.50539523 -0.22698516 1.01126 -0.35466468 -0.16626805 0.024733689 -0.9921489
-0.25660548 0.087454095 0.038809963 -0.41148648 -1.9684986 -0.31631613 -0.11453897 0.012676364
-1.8077685 0.3028128 -0.266578 -0.871254 -0.40210062 -0.28434166 -0.7104891 0.7103006
-1.5649246 -0.6471852 -1.3383864 -0.16176108 -0.3387429 1.1669691 0.09129405 -0.7183576
-0.17154098 -0.5632766 -0.4668624 0.29065514 -2.1697848 0.33067816 0.36890346 0.082908385
-0.39368266 -0.44474503 -0.4154378 0.36586294 0.08930782 -0.1254303 -0.35276744 -0.12333787
-0.8593677 0.46344557 -0.831193 -0.40017474 0.08531514 -0.584903 -1.4916894 -0.54358935
0.76507276 -0.38329878 0.04182411 -0.80181825 -0.3999979 -1.1069883 0.11739682 -0.23230095
00000000: 36d5 3ebf 9561 01bf cc6e 68be f870 813f
00000010: 9c96 b5be 2c42 2abe 4e9e ca3c 78fd 7dbf
00000020: cb61 83be 221b b33d 32f7 1e3d 5bae d2be
00000030: c3f7 fbbf 30f4 a1be 6893 eabd 86b0 4f3c
00000040: f564 e7bf 480a 9b3e e97c 88be 810a 5fbf
00000050: 22e0 cdbe 3b95 91be 9de2 35bf 43d6 353f
00000060: 734f c8bf eead 25bf 3f50 abbf b2a4 25be
00000070: b66f adbe 3e5f 953f 60f8 ba3d 49e6 37bf
00000080: 70a8 2fbe e532 10bf 9708 efbe c0d0 943e
00000090: c1dd 0ac0 a64e a93e eae0 bc3e dfcb a93d
000000a0: c690 c9be 9fb5 e3be 43b4 d4be 6352 bb3e
000000b0: 05e7 b63d cd70 00be ef9d b4be 9198 fcbd
000000c0: 86ff 5bbf bd48 ed3e 10c9 54bf b4e3 ccbe
000000d0: b4b9 ae3d 34bc 15bf aeef bebf ac28 0bbf
000000e0: cfdb 433f bd3f c4be c24f 2b3d f643 4dbf
000000f0: 86cc ccbe cbb1 8dbf be6d f03d 4de0 6dbe

__linear_1.weight f4 [64, 64]
-0.06104637 0.06249791 0.12036159 0.0043234318 -0.16932575 -0.16880146 -0.2038254 -0.058684874
-0.044618 -0.058716714 0.27391216 0.0073567843 -0.01802577 0.085122444 0.026081348 -0.06991998
-0.1693805 -0.119989395 -0.046716385 -0.03274417 -0.11448234 -0.069556475 -0.15856753 -0.2380787
-0.018097406 -0.057520878 -0.21377295 0.045293458 -0.27260357 0.08020962 -0.17659114 -0.14326657
-0.0010541735 -0.31659162 -0.032050684 0.11894252 -0.29500782 -0.03329452 -0.1491219 0.11757371
-0.12922873 -0.051256344 -0.10667722 -0.08185101 -0.124915354 -0.018695032 -0.09533325 -0.043674048
-0.21721552 -0.16375844 -0.05321319 -0.028053345 -0.17707324 0.04854283 -0.0886742 0.018545605
-0.08481306 -0.20278269 -0.16489412 -0.19914216 0.009294603 -0.039958313 0.0657827 -0.15896653
-0.0926795 0.034580216 -0.09778839 -0.31730852 0.0037074704 0.1675459 0.2112987 -0.22550027
-0.036850706 -0.105527885 -0.06473868 -0.03569962 -0.097113505 -0.02070874 -0.0719404 -0.06714243
0.0942611 0.039655436 -0.23022129 -0.27765292 0.026274225 -0.20887816 -0.05896797 -0.30531123
0.0447189 0.031429354 -0.18813783 -0.19688502 -0.049727175 -0.52753603 0.096465155 -0.04598783
-0.07721866 -0.09224667 -0.037997756 0.006487025 -0.08033451 -0.24999364 0.03378094 0.012989532
-0.1293791 0.12927748 -0.24003364 -0.2715318 0.21877842 -0.029994462 0.08492264 -0.015574872
-0.048600063 -0.19512539 -0.13414145 -0.12844251 -0.00078778167 0.099434815 -0.24421978 -0.19504568
-0.17788501 0.023819132 -0.1383779 -0.08731576 0.06971564 0.05882198 0.022343773 -0.119537756
-0.028344586 -0.14187846 -0.07432341 -0.06473943 -0.0014050101 -0.08773004 -0.03419003 0.017581915
-0.010559293 -0.21281546 -0.027976586 -0.012927252 -0.069914006 0.0060339402 -0.12186147 -0.059367064
-0.05538697 -0.044031195 0.014021725 -0.029830974 -0.028482996 -0.16034777 -0.005054927 -0.19441529
-0.068522416 0.051113844 -0.06329898 -0.013191657 -0.06008874 -0.15384181 -0.0076608225 -0.11357216
0.014729234 -0.018875783 -0.071150824 -0.18863739 0.008627791 -0.12717363 -0.08995645 0.09909147
-0.1556916 -0.19389535 -0.21860543 -0.026315542 -0.11485953 -0.215459 -0.10675872 -0.07119652
0.033289455 -0.040149547 -0.07320319 -0.08621123 -0.08325046 -0.101671554 0.0055571785 -0.046355583
-0.14662349 -0.091328405 -0.022436868 0.023624672 0.008896871 0.022979723 -0.008998728 -0.09858944
-0.17596573 -0.034928195 0.028560452 -0.012190224 -0.022994684 0.017068548 -0.04680424 -0.09591324
-0.019279659 -0.065580286 0.09450412 -0.010445035 0.118916094 -0.040057983 -0.06574199 -0.15056589
-0.06550283 -0.13553308 0.03147629 -0.045852806 -0.006519447 -0.0054402077 0.008268792 -0.14969626
-0.04723911 0.07686591 -0.021456592 -0.06478173 0.03794974 -0.0982062 0.00852228 -0.030204426
0.074919894 -0.10211367 0.009799282 -0.06254611 0.08275823 -0.0795809 -0.052800626 -0.1057787
-0.06727939 -0.04134953 -0.11093735 -0.06606941 -0.045401342 0.09111164 -0.0416461 -0.05055543
0.0074155536 -0.056636665 -0.08062846 -0.047262765 -0.112487964 -0.16225514 -0.042385418 -0.0010639259
-0.10026885 -0.096019834 -0.03235126 -0.053209957 -0.069325775 -0.04776455 -0.053157255 -0.10746423
00000000: c20b 7abd cffd 7f3d 2380 f63d 93ab 8d3b
00000010: bb63 2dbe 4ada 2cbe 9bb7 50be 8d5f 70bd
00000020: 5dc1 36bd f080 70bd 373e 8c3e 2e11 f13b
00000030: c8aa 93bc ad54 ae3d 8da8 d53c 3532 8fbd
00000040: 1572 2dbe 00bd f5bd ae59 3fbd c01e 06bd
00000050: b875 eabd a073 8ebd 875f 22be e7ca 73be
00000060: 0341 94bc 039b 6bbd 4ce7 5abe a285 393d
00000070: b292 8bbe f144 a43d 4fd4 34be 79b4 12be
00000080: 312c 8aba 4c18 a2be 9447 03bd 2398 f33d
00000090: 440b 97be d65f 08bd 69b3 18be 7cca f03d
000000a0: 8954 04be 2cf2 51bd 9679 dabd 81a1 a7bd
000000b0: 9fd3 ffbd 5326 99bc 143e c3bd 8fe3 32bd
000000c0: bf6d 5ebe 4bb0 27be 13f6 59bd 21d0 e5bc
000000d0: b052 35be d9d4 463d d29a b5bd f4ec 973c
000000e0: 78b2 adbd 44a6 4fbe 01da 28be eceb 4bbe
000000f0: 6448 183c 54ab 23bd 15b9 863d 1fc8 22be
00000100: c0ce bdbd fca3 0d3d 4845 c8bd 4376 a2be
00000110: 08f9 723b 2791 2b3e b05e 583e 8be9 66be
00000120: c4f0 16bd 011f d8bd b795 84bd c439 12bd
00000130: 72e3 c6bd 60a5 a9bc 7d55 93bd f881 89bd
00000140: f70b c13d bd6d 223d 21bf 6bbe 8628 8ebe
00000150: 0b3d d73c 28e4 55be 6688 71bd c151 9cbe
00000160: 2a2b 373d 11bc 003d 34a7 40be 3a9c 49be
00000170: b9ae 4bbd 9a0c 07bf 868f c53d bc5d 3cbd
00000180: d124 9ebd d2eb bcbd 89a3 1bbd 1c91 d43b
00000190: 6b86 a4bd 55fe 7fbe e25d 0a3d 0cd2 543c
000001a0: f47b 04be 5161 043e 61cb 75be 3706 8bbe
000001b0: 7307 603e f2b6 f5bc eceb ad3d bf2d 7fbc
000001c0: dc10 47bd f3ce 47be 605c 09be 6f86 03be
000001d0: 2283 4eba 7ba4 cb3d c014 7abe 0eba 47be
000001e0: 7d27 36be 5720 c33c f0b2 0dbe 9bd2 b2bd
000001f0: 13c7 8e3d 51ef 703d 4a0a b73c 36d0 f4bd
00000200: e832 e8bc 9648 11be df36 98bd 1b96 84bd
00000210: 5128 b8ba cfab b3bd d80a 0cbd f307 903c
00000220: e300 2dbc 4cec 59be 272f e5bc d3cc 53bc
00000230: 132f 8fbd 5cb8 c53b 8292 f9bd e12a 73bd
00000240: 73dd 62bd 0e5a 34bd 61bb 653c 1660 f4bc
00000250: 2c55 e9bc 3532 24be cda3 a5bb cd14 47be
00000260: 7b55 8cbd c05c 513d e5a2 81bd d221 58bc
00000270: 9c1f 76bd b588 1dbe a307 fbbb 8598 e8bd
00000280: e352 713c 63a1 9abc 86b7 91bd 292a 41be
00000290: 945b 0d3c ce39 02be 163b b8bd 78f0 ca3d
000002a0: 9e6d 1fbe 818c 46be 1ada 5fbe b193 d7bc
000002b0: 793b ebbd 49a1 5cbe 51a4 dabd 7bcf 91bd
000002c0: 865a 083d da73 24bd 8eeb 95bd 838f b0bd
000002d0: 387f aabd 2d39 d0bd fe18 b63b 5adf 3dbd
000002e0: 7824 16be 630a bbbd 86cd b7bc 8788 c13c
000002f0: 2ec4 113c f93f bc3c 676f 13bc 43e9 c9bd
00000300: 5c30 34be de10 0fbd 9cf7 e93c 81b9 47bc
00000310: 595f bcbc 57d3 8b3c ceb5 3fbd 296e c4bd
00000320: 60f0 9dbc f54e 86bd 608b c13d a721 2bbc
00000330: 488a f33d d713 24bd bda3 86bd f22d 1abe
00000340: 5926 86bd 2fc9 0abe 48ed 003d 27d0 3bbd
00000350: 16a1 d5bb c543 b2bb d479 073c fa49 19be
00000360: cc7d 41bd e06b 9d3d bcc5 afbc 49ac 84bd
00000370: 3071 1b3d 5520 c9bd 08a1 0b3c 466f f7bc
00000380: 9a6f 993d f920 d1bd 2b8d 203c 2d18 80bd
00000390: 267d a93d 50fb a2bd 7845 58bd 81a2 d8bd
000003a0: c7c9 89bd 205e 29bd 1f33 e3bd 664f 87bd
000003b0: c2f6 39bd bd98 ba3d 1a95 2abd 3613 4fbd
000003c0: 2cfe f23b d9fb 67bd 8920 a5bd 9a96 41bd
000003d0: 1760 e6bd 3626 26be 559c 2dbd 6e73 8bba
000003e0: c159 cdbd 0ca6 c4bd c182 04bd aff2 59bd
000003f0: acfa 8dbd c3a4 43bd 6cbb 59bd 3516 dcbd

__linear_1.bias f4 [64]
-0.24120155 -0.2993448 -0.16021942 -0.18602104 -0.051277034 -0.031777848 -0.27066702 -0.284493
-0.234659 -0.09762063 -0.09857548 -0.7583485 -0.053164147 -0.0011140135 -0.11048738 0.21560077
0.014559931 -1.8263189 -0.11572198 0.8711675 -0.48356453 -0.13057043 -0.104692146 -0.15354238
-0.14274287 -0.09525609 -0.93841213 -0.22987668 -0.1847766 -0.016777331 -0.17957072 -0.05457731
-0.23938271 -0.0063415165 -0.5347877 -0.23427396 -0.15024771 -0.0780378 -0.12055547 0.048847146
-0.025111586 0.14087054 -0.22597907 -0.041377526 -0.2188833 -0.18412872 -0.08658962 -0.11363002
-0.24325645 -0.2477303 -0.20371023 -0.085495934 -0.20141818 -0.19687441 -0.057626348 -0.16274956
-0.16963679 -0.0065645035 -0.07777928 -0.30902246 -0.027061196 -0.11896735 -0.085566476 -0.023407474
00000000: 8afd 76be b943 99be 8f10 24be 4d7c 3ebe
00000010: de07 52bd 7d29 02bd de94 8abe 11a9 91be
00000020: 734a 70be 53ed c7bd f1e1 c9bd 2123 42bf
00000030: a6c2 59bd 1704 92ba 3547 e2bd 73c6 5c3e
00000040: c78c 6e3c d1c4 e9bf a5ff ecbd d504 5f3f
00000050: c595 f7be 41b4 05be d668 d6bd 373a 1dbe
00000060: 302b 12be a015 c3bd c73b 70bf cb64 6bbe
00000070: 1436 3dbe 9d70 89bc 63e1 37be 758c 5fbd
00000080: be20 75be 7fcc cfbb d9e7 08bf 83e5 6fbe
00000090: 89da 19be 48d2 9fbd c9e5 f6bd f213 483d
000000a0: d0b6 cdbc 5e40 103e 0f67 67be 7b7b 29bd
000000b0: f222 60be 3d8c 3cbe e655 b1bd dbb6 e8bd
000000c0: 3818 79be 03ad 7dbe 6a99 50be 7e18 afbd
000000d0: 9140 4ebe 7299 49be 9b09 6cbd d2a7 26be
000000e0: 44b5 2dbe 0c1b d7bb be4a 9fbd 3138 9ebe
000000f0: 71af ddbc 27a5 f3bd 7a3d afbd 08c1 bfbc

__linear_2.weight f4 [64, 64]
0.012829428 0.07916481 0.09102498 -0.030370604 -0.15477884 -0.0152170835 -0.0865031 0.079078324
0.05298022 0.03190715 0.051611193 -0.027813774 -0.12719844 -0.10002884 -0.018978681 0.0031891398
-0.07806491 -0.10644702 -0.073492475 -0.1264685 -0.08006085 -0.09912329 -0.12814295 -0.04454076
-0.0979415 -0.10436371 -0.073423624 0.04375279 0.07188759 0.020416193 0.05865647 0.11172328
-0.103233054 0.10749327 -0.107057326 0.054846868 -0.09223521 -0.05417336 0.009129977 0.046145912
0.12782702 -0.087233946 -0.15024945 -0.0020825786 0.05537273 -0.049399372 0.04188228 -0.049954884
-0.017965943 -0.03912378 -0.016314527 -0.058786448 -0.017873306 -0.06853532 -0.06687835 -0.05038004
-0.048658933 0.04183278 0.060073663 0.03139884 0.039092105 -0.15330502 -0.08158295 0.112069376
-0.032916445 0.13108894 0.009342823 -0.11028312 -0.24139725 0.07163961 0.42747086 0.27881852
-0.07995694 -0.084414095 0.052467853 -0.03808953 0.04523797 -0.12397388 0.03364012 -0.2904617
0.05793089 0.07028333 -0.027144529 0.13131137 -0.11496339 0.02471653 -0.08732713 -0.00814117
0.060294062 -0.033372767 -0.03123836 0.017237812 -0.035457432 0.027740156 -0.052562393 0.00047092055
0.10062857 -0.0009135327 -0.34649843 -0.07007568 0.07299183 -0.08894087 -0.05891033 0.06584025
0.05609367 0.18726805 -0.0071207033 -0.7823267 -0.05655249 -0.06578887 0.032107938 -0.2575702
-0.082172744 0.028917361 -0.03806398 -0.16041967 0.011365551 0.07424796 -0.044596314 -0.15336998
-0.04889719 -0.08889521 0.025097491 0.344954 -0.015648996 -0.07604658 -0.48595354 -0.07233216
-0.12238297 0.046825547 0.050295398 -0.05283415 -0.32940465 -0.15929422 -0.017726395 -0.10679096
0.02872801 0.042398825 -0.0016391311 -0.15004537 -0.016930643 -0.1319884 0.018464284 0.024551727
-0.02554413 -0.11843403 -0.06299774 -0.18313633 -0.08114337 0.05035887 -0.07248101 0.043623865
0.0023193068 0.042310733 -0.016532077 -0.04891007 -0.0022994485 0.11861278 -0.06225769 -0.03924132
-0.046225086 0.10582988 -0.057425056 -0.051639643 -0.0929393 -0.14760128 0.092429325 0.06315779
-0.024528824 -0.0667236 -0.012795529 0.028582921 -0.028542833 0.06953572 0.051502585 0.12643842
-0.090863064 -0.101570904 0.08504774 0.0860911 -0.10226901 -0.11980073 -0.13524412 0.052335806
-0.11770976 0.027826598 0.08159274 -0.06806929 0.116158426 -0.048415348 0.0020429604 -0.05547843
-0.019370103 0.013673735 0.034740094 -0.013114788 -0.13932912 -0.17244725 0.017118571 -0.05673717
-0.030736946 0.111300446 0.0026366499 -0.032807566 -0.07695919 -0.0886828 -0.058844328 -0.009760136
-0.18099533 -0.40193182 0.06337769 -0.062100045 -0.13251138 -0.09891636 -0.035802387 -0.012834326
0.018010862 0.10087213 -0.049966775 0.00589371 -0.078811415 -0.05624129 0.019404236 0.02910235
-0.10255088 -0.006306673 -0.11751809 0.004709909 -0.095604695 0.035130076 0.050949 -0.03109251
0.015882384 -0.13324393 -0.08819414 0.046607763 -0.15599969 0.045721542 0.09887162 0.09988894
-0.1702519 0.10045355 0.054944273 0.017628973 0.011804736 0.042556617 -0.03753654 0.06602531
0.0061962632 0.09196256 -0.01950036 0.0182422 -0.007918927 0.067353435 0.13671339 0.0048887227
00000000: 8532 523c 2921 a23d 4e6b ba3d c6cb f8bc
00000010: 587e 1ebe 1351 79bc 8a28 b1bd d1f3 a13d
00000020: ca01 593d 12b1 023d 4266 533d b6d9 e3bc
00000030: 4f40 02be ecdb ccbd 2e79 9bbc e300 513b
00000040: 7fe0 9fbd e500 dabd 3983 96bd f580 01be
00000050: f1f6 a3bd 2701 cbbd e837 03be 5f70 36bd
00000060: 8e95 c8bd a4bc d5bd 205f 96bd 2036 333d
00000070: cd39 933d dc3f a73c c441 703d 2dcf e43d
00000080: da6b d3bd 6e25 dc3d df40 dbbd 1ca7 603d
00000090: d0e5 bcbd e3e4 5dbd e695 153c 7f03 3d3d
000000a0: 16e5 023e b6a7 b2bd feda 19be df7b 08bb
000000b0: 84ce 623d ff56 4abd c18c 2b3d 7e9d 4cbd
000000c0: 502d 93bc 4240 20bd 0ba6 85bc 0fca 70bd
000000d0: 0a6b 92bc 3f5c 8cbd 84f7 88bd 4d5b 4ebd
000000e0: 974e 47bd d958 2b3d cd0f 763d 129c 003d
000000f0: 0b1f 203d fefb 1cbe f614 a7bd a184 e53d
00000100: 65d3 06bd 2e3c 063e a412 193c 1edc e1bd
00000110: d730 77be cab7 923d 76dd da3e 4dc1 8e3e
00000120: 77c0 a3bd 4ce1 acbd 88e8 563d c403 1cbd
00000130: 734b 393d 05e6 fdbd 39ca 093d 65b7 94be
00000140: f148 6d3d b5f0 8f3d 345e debc 7d76 063e
00000150: ed71 ebbd 527a ca3c 91d8 b2bd 8b62 05bc
00000160: e8f6 763d e2b1 08bd 97e7 ffbc 5036 8d3c
00000170: d03b 11bd 533f e33c aa4b 57bd e3e5 f639
00000180: 5a16 ce3d 247a 6fba 3e68 b1be d783 8fbd
00000190: be7c 953d a126 b6bd f54b 71bd 41d7 863d
000001a0: 7ac2 653d 32c3 3f3e ca54 e9bb 9046 48bf
000001b0: 95a3 67bd 51bc 86bd 9d83 033d 3ee0 83be
000001c0: 2f4a a8bd 1ae4 ec3c fae8 1bbd 0e45 24be
000001d0: 9336 3a3c 500f 983d a0aa 36bd 050d 1dbe
000001e0: 6b48 48bd b10e b6bd 4199 cd3c d09d b03e
000001f0: 5332 80bc 4fbe 9bbd e7ce f8be e222 94bd
00000200: eca3 fabd 25cc 3f3d 8c02 4e3d 9f68 58bd
00000210: baa7 a8be 061e 23be f236 91bc 38b5 dabd
00000220: 0157 eb3c 64aa 2d3d 1dd8 d6ba 7ea5 19be
00000230: 22b2 8abc f827 07be 6942 973c b420 c93c
00000240: ec41 d1bc 8a8d f2bd f604 81bd 1788 3bbe
00000250: 7f2e a6bd 1a45 4e3d ec70 94bd f0ae 323d
00000260: 83ff 173b 054e 2d3d 476e 87bc ed55 48bd
00000270: 58b2 16bb 42eb f23d eb01 7fbd 82bb 20bd
00000280: 8456 3dbd 56bd d83d 8936 6bbd 1784 53bd
00000290: f656 bebd ca24 17be 964b bd3d df58 813d
000002a0: acf0 c8bc 62a6 88bd 57a4 51bc bb26 ea3c
000002b0: a9d2 e9bc be68 8e3d 60f4 523d 1379 013e
000002c0: 6a16 babd 6804 d0bd 822d ae3d 8850 b03d
000002d0: 6a72 d1bd 165a f5bd 6f7d 0abe 125e 563d
000002e0: d111 f1bd 9bf4 e33c 181a a73d e967 8bbd
000002f0: 78e4 ed3d 2c4f 46bd 30e3 053b 5a3d 63bd
00000300: 0dae 9ebc cd07 603c a14b 0e3d 68df 56bc
00000310: 4bac 0ebe 0396 30be 3f3c 8c3c 3c65 68bd
00000320: 0ccc fbbc 7df1 e33d a5cb 2c3b 3a61 06bd
00000330: c89c 9dbd 549f b5bd c006 71bd fae8 1fbc
00000340: d756 39be 02ca cdbe 2acc 813d 9e5c 7ebd
00000350: 10b1 07be a994 cabd 86a5 12bd 1147 52bc
00000360: 848b 933c 0c96 ce3d f6a9 4cbd 0620 c13b
00000370: e167 a1bd 445d 66bd a2f5 9e3c 0d68 ee3c
00000380: 3206 d2bd 35a8 cebb 53ad f0bd 9555 9a3b
00000390: 65cc c3bd 8ee4 0f3d e6af 503d b8b5 febc
000003a0: c61b 823c 1971 08be 219f b4bd c8e7 3e3d
000003b0: 62be 1fbe 8346 3b3d 347d ca3d 9392 cc3d
000003c0: 8456 2ebe 97ba cd3d 3f0d 613d a36a 903c
000003d0: a768 413c d94f 2e3d eabf 19bd 4738 873d
000003e0: 060a cb3b de56 bc3d 38bf 9fbc ab70 953c
000003f0: 63be 01bc 99f0 893d 98fe 0b3e 9431 a03b

__linear_2.bias f4 [64]
-0.19347021 -0.15318504 -0.36642557 -0.2169556 -0.11571131 -0.2138085 -0.18391919 -0.11876086
-0.3876768 -0.24238785 -0.3845686 -0.37242568 -0.31404376 -0.33506832 -0.22957216 -0.17531773
-0.21179509 -0.2771237 -0.24630459 -0.3029255 -0.37596065 -0.23999284 1.0181369 -0.16672298
-0.17555238 -0.049130015 -0.1716864 -0.29297912 1.1321537 -0.16066475 -0.33636153 -0.31117618
-0.2582532 -0.15466079 -0.21817547 -0.2509426 1.1396589 -0.39893407 -0.3694456 -0.2223088
-0.27651465 -0.22298051 -0.25818843 -0.21311635 -0.2807602 -0.49105155 -0.34668136 -0.2994686
-0.30351454 -0.25072366 -0.20554553 -0.06921484 -0.12824628 -0.23765399 -0.23159006 -0.10799247
-0.24978933 -0.38466948 -0.28465027 -0.20809217 -0.23163551 -0.3012425 -0.27342442 -0.35117385
00000000: 0e1d 46be 8adc 1cbe 229c bbbe 9c29 5ebe
00000010: 0dfa ecbd 9ef0 5abe 5055 3cbe e538 f3bd
00000020: 937d c6be 8534 78be 2de6 c4be 94ae bebe
00000030: 58ca a0be 138e abbe f714 6bbe 7e86 33be
00000040: d0e0 58be 28e3 8dbe 4537 7cbe 0d19 9bbe
00000050: ea7d c0be afc0 75be 4f52 823f 6eb9 2abe
00000060: 01c4 33be 8e3c 49bd 8fce 2fbe 5c01 96be
00000070: 6aea 903f 4d85 24be 9437 acbe 7c52 9fbe
00000080: c339 84be 665f 1ebe 6469 5fbe 8c7b 80be
00000090: 58e0 913f 1641 ccbe f927 bdbe eba4 63be
000000a0: 5493 8dbe 0155 64be 4631 84be 2c3b 5abe
000000b0: cdbf 8fbe 1c6b fbbe 3880 b1be f353 99be
000000c0: 4266 9bbe da5e 80be 877a 52be 83c0 8dbd
000000d0: fe52 03be 915b 73be f225 6dbe 282b ddbd
000000e0: c6c8 7fbe 66f3 c4be aebd 91be 1d16 55be
000000f0: dc31 6dbe 753c 9abe 49fe 8bbe 0fcd b3be

__linear_3.weight f4 [1, 64]
0.059263308 -0.034961715 -0.025270976 0.04820965 -0.014711713 0.021546768 -0.015232373 0.023493273
-0.026823707 -0.006890481 -0.015213705 -0.002526016 0.026330357 0.026624652 0.042232126 0.009971307
0.07058587 0.02719965 -0.00032006163 -0.006367376 0.044174585 -0.009753407 0.11204527 0.025589915
0.053911265 0.014108105 0.014717831 0.03041687 -0.06362565 0.011257256 -0.046353668 0.05537224
-0.016902722 -0.022858977 -0.03833679 -0.05574962 -0.044267066 -0.006200712 -0.020754315 -0.055365253
0.011423935 -0.02794707 0.021619562 0.00060727436 -0.029752979 0.02535513 0.008688923 0.03033232
0.02012942 -0.0075396076 0.023860041 0.02812326 -0.0019748495 -0.019541573 0.009084918 0.002462045
-0.010103308 0.004691379 0.032521654 0.0056281565 0.044863645 -0.0018655728 -0.016553387 0.04166076
00000000: 15be 723d 0434 0fbd 1405 cfbc 7b77 453d
00000010: 6609 71bc d982 b03c 3491 79bc f774 c03c
00000020: 64bd dbbc 8bc9 e1bb e742 79bc 848b 25bb
00000030: c3b2 d73c f11b da3c 98fb 2c3d b15e 233c
00000040: 538f 903d cdd1 de3c f2cd a7b9 6ca5 d0bb
00000050: 69f0 343d c1cc 1fbc fe77 e53d f1a1 d13c
00000060: 0fd2 5c3d ae25 673c 0f23 713c cd2c f93c
00000070: 2a4e 82bd 5b70 383c 58dd 3dbd 00ce 623d
00000080: 9477 8abc c042 bbbc 0a07 1dbd b759 64bd
00000090: 6251 35bd 582f cbbb f404 aabc adc6 62bd
000000a0: 752b 3b3c 41f1 e4bc 821b b13c 7e31 1f3a
000000b0: 85bc f3bc 90b5 cf3c fc5b 0e3c 7c7b f83c
000000c0: 74e6 a43c d00e f7bb 2276 c33c c062 e63c
000000d0: 7a6c 01bb a615 a0bc e8d8 143c 435a 213b
000000e0: 5888 25bc 24ba 993b 6d35 053d 666c b83b
000000f0: f1c2 373d 3c86 f4ba f89a 87bc 79a4 2a3d
