agent_0_actor.pt (torch_old, 24637 bytes, 6 tensors)

__linear_0.weight f4 [64, 24]
000000 28 92 8c 3f 4f ba 89 3f 84 04 4d 3e 6d 26 12 bf
       1.0982103 1.0759982 0.20021254 -0.57089883
000010 65 6c 74 be 75 93 fa be b3 b1 ff 3d a1 35 09 bf
       -0.23869474 -0.48940626 0.12485065 -0.53597456
000020 66 5e a1 3f ef b6 90 3f 7c 38 7f 3e 93 34 35 bf
       1.2606933 1.1305827 0.24923891 -0.70783347
000030 bf 71 a9 be c9 60 9e bf 1a ca e0 3d 4f 80 4f bf
       -0.33094594 -1.2373286 0.10976048 -0.8105516
000040 77 95 76 3f ef 00 4a 3f d4 dd 98 3e 17 08 86 bf
       0.96321815 0.78907675 0.2985674 -1.0471219
000050 f0 b8 03 bf 66 b8 b3 bf 96 d8 a6 3c 45 71 37 bf
       -0.5145407 -1.4040649 0.020366948 -0.7165721
000060 1e 0c 85 3f 6d 5e ed 3e 3d b7 93 bd 60 53 83 3c
       1.0394323 0.46361104 -0.07212684 0.016030967
000070 6a b7 3e 3f b7 5b 8f bf 1f 05 4d be 7d 2b 93 be
       0.7449862 -1.1199864 -0.20021485 -0.28744116
000080 03 e0 42 3f 9a 53 de bd 47 79 40 bc 97 fe a3 bb
       0.76123065 -0.108557895 -0.011747665 -0.0050047147
000090 66 e6 d9 bc 5b 48 9b be ec 1b 95 be 12 07 ab be
       -0.02659912 -0.3032864 -0.29122865 -0.33403832
0000a0 5e 29 e2 3d aa 62 66 be 27 ab 87 be 1d 5a 86 bf
       0.110430464 -0.22498575 -0.26497766 -1.049625
0000b0 13 84 19 3e 6c 29 c3 3e f4 59 09 3d a6 a8 7a bf
       0.14991789 0.3811754 0.03353305 -0.9791359
0000c0 b7 e2 ce be fb f0 b5 3f c9 ae b3 3c 0b 12 c5 3e
       -0.40407345 1.4214166 0.02193393 0.38490328
0000d0 7f 98 53 3d bf f1 58 bf 58 8a 8b be 4d 35 4f 3e
       0.051659103 -0.84743875 -0.27253985 0.20235176
0000e0 7b af 21 bf 34 72 9e 3f e6 f0 0e be cd e8 47 be
       -0.63158387 1.2378602 -0.13959083 -0.195224
0000f0 dc 5a 7b 3e c7 4b 56 bf bc 02 1a 3e 38 5f 9e be
       0.24546379 -0.8370938 0.15040106 -0.3093202
000100 9a fd a7 be 86 f9 8f 3f 89 4e 4b 3d 07 9f 8b bf
       -0.3281067 1.1248024 0.049635444 -1.0907906
000110 32 b9 51 3f 0c fd 92 bf 41 64 13 3e 68 1d 88 bf
       0.8192321 -1.1483474 0.14393713 -1.0633974
000120 3d 26 13 bf 83 b7 e9 3f a0 56 61 bd db 7b a5 3e
       -0.5748022 1.8259128 -0.055014253 0.32321057
000130 78 48 70 be 26 93 5a bf 85 da 0b be 8d d6 89 3e
       -0.23465145 -0.8538078 -0.13657577 0.26921502
000140 76 3e 35 bf 28 bd ec 3f da 92 07 bd 74 ea 23 3f
       -0.7079843 1.8495226 -0.033099033 0.6402962
000150 fa d2 4c 3a fb 85 e7 bf dc ac 78 3d 4a 0d c9 3e
       0.00078134204 -1.8087763 0.060711727 0.3926795
000160 e0 90 3b bf cc 5b ec 3f c5 3c 86 3d 93 a6 b1 3c
       -0.73267937 1.8465514 0.065545596 0.021685874
000170 ec db da 3e f7 2b 36 c0 ed e6 fa bd c9 4f ac 3d
       0.42745912 -2.8464334 -0.12251077 0.08413655
000180 90 99 09 3f 72 ce 03 c0 4e 44 84 be 17 a6 2d be
       0.5374994 -2.0594754 -0.25833362 -0.1695789
000190 2e b2 32 be 4e 20 9a be 1c 5c 8d be ec 17 9a be
       -0.17450783 -0.30102772 -0.27609336 -0.30096376
0001a0 57 e8 b8 3e 2c bd fb bf f3 92 a7 bd 8f 5f 5c 3e
       0.3611476 -1.9667106 -0.08182325 0.21520828
0001b0 dc 19 4b be 85 7d ad be e7 e6 77 3d d6 4d 61 bd
       -0.19834083 -0.33884826 0.06052294 -0.05500587
0001c0 24 f7 01 3f 5c c4 01 c0 86 48 03 bf 65 ac 58 bd
       0.5076773 -2.0276098 -0.51282537 -0.052898783
0001d0 5d 8a 81 be a9 20 ac be ee 82 94 be 19 40 13 bd
       -0.25300875 -0.33618668 -0.2900614 -0.0359498
0001e0 3c 62 37 3e 95 63 0f 3f 8b b7 03 3d ae ae 9f bd
       0.17908567 0.56011325 0.032157462 -0.077969894
0001f0 74 15 46 3c 1b 83 9f be 09 ed 3f be ea 75 3a be
       0.012090076 -0.31154713 -0.18742765 -0.18209043
000200 44 d3 ff 3b 5c aa f0 3e d9 64 5c be 83 5b 80 bf
       0.0078071672 0.47004974 -0.21522845 -1.0027927
000210 53 80 e1 3d f6 72 80 bf 01 f6 6d bd 4f c9 95 bf
       0.11010804 -1.0035083 -0.058095936 -1.170206
000220 03 a4 7a 3d 41 fb 5f 3d 44 45 b4 3d 60 58 d7 bf
       0.06119157 0.054682974 0.08802274 -1.6823845
000230 de 60 55 3c d3 e7 9c bf 19 0c aa 3e 5e 3d e8 bf
       0.013023583 -1.2258247 0.33212355 -1.8143728
000240 69 ce f2 3e 3c c5 83 3d 30 e5 ad bd 79 fc 9f 3e
       0.47423103 0.06434104 -0.0849098 0.3124731
000250 10 5a 01 40 69 cc 00 be 0d ff f2 3d 0b 60 b9 3e
       2.021122 -0.12577976 0.11865053 0.36206087
000260 9a 4f 3c be c8 95 0f be 4b 28 17 bd 6d 3d 06 be
       -0.1838974 -0.14021981 -0.03690366 -0.1310937
000270 5e 60 94 3f 18 f4 3a 3f 01 f5 86 3e d9 69 b9 3d
       1.1591909 0.7302871 0.26358798 0.09053392
000280 07 7b 33 be 84 df d7 bd 93 fd 1e bc f1 2e 3e bf
       -0.175274 -0.10540679 -0.0097040115 -0.74290377
000290 ec e8 53 3f f6 48 ce 3f 3d 69 02 bd e9 44 28 bf
       0.82777286 1.6116016 -0.031838644 -0.6573015
0002a0 89 44 06 3f 8d 60 99 be 3e 1e b7 be 12 57 81 3e
       0.52448326 -0.29956475 -0.3576526 0.25261742
0002b0 98 1a 66 3e c7 7c cf 3e 86 ae 5d be b5 b9 29 3e
       0.22471082 0.40524885 -0.21648607 0.16574748
0002c0 cd ee 42 3f 3e 18 27 be 95 e9 dd be e6 22 88 3d
       0.7614563 -0.16317841 -0.4334227 0.06647281
0002d0 e5 b9 67 3f a5 fc e4 3e f9 9f a5 bd e7 cc 59 3e
       0.9051803 0.44724002 -0.08087153 0.2126957
0002e0 cd 0c 17 3e 51 d8 93 be ab 7e b3 be f5 42 81 3d
       0.14750977 -0.28875974 -0.35057577 0.06311599
0002f0 4e af 4e 3f 3b db 36 3f 34 56 94 be 62 c5 26 3e
       0.80736244 0.7142827 -0.28972018 0.16286233
000300 be 5c 01 be cc 33 77 3f 46 ab bf be f5 fe 55 bd
       -0.12633035 0.9656341 -0.3743536 -0.0522451
000310 6e 51 16 be f1 37 07 bf 3d 49 67 be 48 0d 51 bc
       -0.146795 -0.52819735 -0.22586532 -0.012759514
000320 37 e8 4f be dd 22 58 3f 01 fa 53 3e c4 9b 07 bf
       -0.20303427 0.844282 0.20700838 -0.52972054
000330 e4 d3 67 3e 36 ba 80 bf aa e0 f7 3d 12 de ba be
       0.22639424 -1.0056827 0.12103398 -0.3649755
000340 4a 3f 9f bd 0b f6 18 3f ed ef 5e be c9 43 2b bf
       -0.07775743 0.5975043 -0.21771212 -0.66900307
000350 e2 ea 2c 3f 26 d2 93 bf 32 6d 5a be 2b 6e 22 bf
       0.675459 -1.1548507 -0.21330717 -0.6344935
000360 39 49 eb be 67 36 ea 3d 7d 28 0c be 49 28 cc be
       -0.45954302 0.11436158 -0.1368732 -0.39874485
000370 44 56 0e bf 05 fe 30 3f 61 20 ef 3c c7 9b c5 be
       -0.5560038 0.69137603 0.029190244 -0.3859541
000380 c0 07 87 bd ad 1c a9 3e 9e f6 fb bd a5 86 04 3f
       -0.06593275 0.3302969 -0.12302898 0.5176795
000390 0a 2d 44 3e c7 af 0f bf a3 0e 8e be da 64 f3 3e
       0.19157806 -0.5612759 -0.27745542 0.4753788
0003a0 8b ca 1f be dc 35 0c 3f ce 9e c3 bd 32 7f 30 3f
       -0.15604608 0.5476968 -0.09551774 0.68944085
0003b0 b9 45 2c 3f 2b 61 b6 bf 1a 68 75 be 62 e4 54 3f
       0.6729389 -1.4248403 -0.23965493 0.83160985
0003c0 ad 24 72 bf 02 75 16 3f 3c 94 6f be c4 a0 06 3f
       -0.9458721 0.5877229 -0.2339639 0.5258906
0003d0 3b 08 25 3b 86 ea 94 be d8 a1 f0 3d b0 94 c9 3e
       0.0025181908 -0.29085177 0.11749619 0.39371252
0003e0 d2 41 6e bf 36 98 4b 3f a8 2a 14 be 93 be fe bc
       -0.93069184 0.7952913 -0.14469397 -0.031096732
0003f0 9f 27 31 3f 80 e4 8f bf 00 61 3d 3e e9 8f 03 be
       0.6920108 -1.1241608 0.18494034 -0.12847866

__linear_0.bias f4 [64]
000000 d5 5e 2f bc 74 4d 31 be fb 15 84 3e 22 2e 27 3e
       -0.010703762 -0.17314702 0.2579802 0.16326192
000010 3f 1d a5 3c 2c 96 37 bd 08 57 8f be 8a c2 a5 be
       0.020155547 -0.04482095 -0.27996087 -0.32374984
000020 31 bf 53 be 8d 8b 8c be e4 ec d7 3e a0 21 02 bf
       -0.20678402 -0.2745022 0.4217292 -0.5083256
000030 88 d9 cb be 3c 6f b4 be 93 c8 aa 3e 49 71 0b be
       -0.398144 -0.35241115 0.3335615 -0.13617434
000040 89 64 fe bc 64 c7 ce be e6 b6 8b 3e 9e 88 03 3c
       -0.031053798 -0.40386498 0.27287978 0.008028178
000050 34 18 c5 3e 66 cd 7a 3e 53 92 9d 3d 18 de 5f 3e
       0.38495028 0.24492416 0.07693925 0.21862066
000060 e7 12 99 be 16 59 70 3e 4f 7e 0c be 48 8c 47 3e
       -0.29897234 0.23471484 -0.13720058 0.19487107
000070 3d 3e 1c bf 07 90 24 bf 43 10 be be f7 01 ea be
       -0.6103247 -0.6428227 -0.37121782 -0.45704624
000080 c5 8c 97 be 72 40 20 bf 57 4d 9e 3b 82 e9 d1 be
       -0.29599586 -0.62598336 0.004830997 -0.40998465
000090 a3 1c 9a 3e d9 24 41 bf 03 ae 1b 3e bc 5d 07 bf
       0.30099973 -0.7544685 0.15203099 -0.528774
0000a0 7e 26 d5 3e d3 ed 43 bd c6 ed 8d 3e 9a 46 b2 be
       0.4163093 -0.04783423 0.2772047 -0.3481949
0000b0 59 31 20 bf 9d 88 93 3e 63 5b 2b bf ff 26 15 bf
       -0.625753 0.28815165 -0.6693632 -0.5826263
0000c0 fd 49 9b bd bc 70 a9 bd e5 4a ef be 7c dc 67 be
       -0.075824715 -0.082734555 -0.46736827 -0.22642702
0000d0 aa bd df be 06 76 fb be 44 34 33 bf cc 36 a2 bd
       -0.4369939 -0.49113482 -0.70001626 -0.07920608
0000e0 61 49 b3 be ca 82 c6 3e ae e6 20 be 6b 48 8f bd
       -0.3501692 0.3877166 -0.15712997 -0.069962345
0000f0 e3 48 42 bf f8 63 6c be 90 24 b0 3e ac 3b 26 be
       -0.75892466 -0.2308501 0.34402895 -0.162337

__linear_1.weight f4 [64, 64]
000000 cc 2a 6b bf 19 6b f8 bd b2 ec cf be d2 18 c1 be
       -0.9186218 -0.12129802 -0.40610272 -0.3771425
000010 08 8e 10 bf 7c d7 9d be ac 9c 16 be fb 3e ed 3d
       -0.5646672 -0.30828464 -0.14708203 0.11584278
000020 d9 ac 22 bd 0b cd 5c bf 7c e4 21 bf b9 33 c9 3e
       -0.03971562 -0.8625037 -0.63239264 0.39297274
000030 bb 05 b2 be c1 3c 55 bd a0 49 be 3d 1f 91 39 bf
       -0.34769997 -0.052059893 0.092913866 -0.7248706
000040 09 d7 81 bf 73 4e 7c 3e fb ae 61 bf 0e ad 5f 3e
       -1.0143749 0.24639301 -0.88157624 0.21843359
000050 a7 59 2e bf 4d 9c 3c bf 28 3b 3f be 5d e1 94 be
       -0.6810555 -0.73675996 -0.1867491 -0.2907819
000060 31 7f ab 3c c8 b9 bb 3c ca 20 e9 be e0 2d 45 bf
       0.020934673 0.022915736 -0.4553283 -0.77023125
000070 e2 f0 49 bf 55 c9 60 be 29 81 a2 be cc f7 8e be
       -0.78883183 -0.21951802 -0.31739166 -0.2792343
000080 83 3c 67 be fc f5 8b be 76 be a2 be 0b e8 9e bd
       -0.22581677 -0.2733611 -0.31785935 -0.077591024
000090 f0 04 5b be 03 cb bb 3c e1 36 de be cf 6a 6e be
       -0.21388602 0.022923952 -0.43401244 -0.23282932
0000a0 f7 2e ef bd c4 fa 53 be cd 49 05 bf 31 74 15 be
       -0.1167888 -0.20701128 -0.52065736 -0.14595105
0000b0 21 7c 0c 3f 4d 69 b4 be 75 e2 3a 3b 13 0e 56 bc
       0.54876906 -0.35236588 0.0028516327 -0.013064879
0000c0 1e b3 bf be 19 b2 fb 3e 0a 32 76 be fd 86 65 bf
       -0.37441343 0.49159315 -0.24042526 -0.896591
0000d0 f0 b8 8f 3c 23 14 fb bd f1 b8 00 3f 1d ea 7c be
       0.01754424 -0.122597 0.502822 -0.24698682
0000e0 06 4c aa be 37 80 5c bf bc 1e f5 3e 91 ac 69 bf
       -0.33261126 -0.8613314 0.4787501 -0.9127894
0000f0 ca 82 4a 3e 24 eb 0e bf 6c 32 b7 3e 7d 72 94 3e
       0.19776455 -0.55827546 0.35780656 0.28993598
000100 2a d4 a2 be 4f d0 be be cc c4 0f bf 0a e3 21 bf
       -0.31802493 -0.37268302 -0.56159663 -0.6323706
000110 66 25 0b bf 05 ba d4 bd b7 6f 4d be 3c e8 89 be
       -0.5435394 -0.10387043 -0.20062147 -0.26934993
000120 40 63 00 bf 15 f8 95 3d 29 93 8a be cc c4 14 bf
       -0.50151443 0.073227085 -0.270654 -0.5811279
000130 08 97 1c bf 69 93 e6 be e2 7e df be ac 9a 82 be
       -0.61167955 -0.4503434 -0.4365149 -0.2550863
000140 23 6b 22 be 77 38 b7 bd e5 f7 8f be 93 f1 00 bf
       -0.15861182 -0.08946317 -0.28118816 -0.50368613
000150 fd 2e 1d 3f 3e fe 19 3f ca da bd 3d 31 9b 10 bf
       0.61399823 0.6015357 0.09270246 -0.56486803
000160 49 43 f8 3e 57 06 b3 3e 66 1b a6 be 79 0b 95 be
       0.48488835 0.34965774 -0.32442778 -0.29110315
000170 38 2f d7 3e a6 29 9c be 75 48 50 3c 20 ce 05 3e
       0.42028213 -0.30500525 0.012712588 0.13066912
000180 29 0d 78 3d 30 86 22 3c c3 d5 87 3e 08 ef ea 3e
       0.060559426 0.009919688 0.26530275 0.4588549
000190 41 70 94 3e d6 4f 24 3f fb 9a 17 bf a1 51 93 3e
       0.28991893 0.6418432 -0.59220856 0.28773215
0001a0 24 b2 0f 3f da 26 14 bd 0d 33 bc 3e e7 39 5c 3e
       0.56131196 -0.036169864 0.367577 0.21506463
0001b0 a6 f1 60 bf 8f 16 6e be d4 e6 89 bf 13 ca 23 3f
       -0.87868726 -0.23250793 -1.0773568 0.63980216
0001c0 f9 63 a0 be bf f8 70 be be 62 ec 3e e4 22 9e be
       -0.31326273 -0.23532389 0.46169084 -0.30885994
0001d0 5e 9f 2d 3f f6 88 00 3f b1 f8 26 bd e6 94 63 be
       0.678213 0.50208986 -0.040764514 -0.22224769
0001e0 c9 b4 ca 3d 37 17 94 be b2 64 72 3d 3b 56 59 bf
       0.09897763 -0.28923962 0.05917806 -0.848972
0001f0 74 6b 93 bf af c1 e4 3e 3b e2 a9 bb ad 77 0b 3f
       -1.1517167 0.4467902 -0.0051844395 0.54479486
000200 b2 eb 5e be 30 66 cd 3e 4a 42 ed bd 46 8c a7 be
       -0.21769598 0.40117025 -0.11584909 -0.32724208
000210 7e 9f d6 3d ad 07 e6 bd 3e c2 ea be 67 a7 85 be
       0.104796395 -0.11231933 -0.4585132 -0.2610428
000220 c4 45 bf be 96 d2 c1 be 1f d8 a0 3e ec ae 2c bf
       -0.37357914 -0.37855977 0.31414887 -0.6745441
000230 57 74 21 bf 59 73 99 bf 61 ef 05 3e 18 39 73 3e
       -0.63068146 -1.1988326 0.13079597 0.23752248
000240 5e 89 0b bd 57 94 1a be 4d 3d 20 3f 03 7f 1d 3e
       -0.03406655 -0.1509565 0.6259354 0.15380482
000250 2e 2e 2b 3f a2 b6 11 3f ae 24 88 bf 15 5c 86 be
       0.6686734 0.569193 -1.0636194 -0.26242128
000260 e1 56 9b be e9 af 09 bc c8 22 8d bf 85 db bc 3e
       -0.3033972 -0.008403757 -1.1026239 0.3688623
000270 c9 de 38 3d 31 b6 15 be ee 26 2c be 20 bf ba be
       0.04513434 -0.14620282 -0.16811725 -0.36473942
000280 84 9c 6c 3e ac 72 9d be 93 7f c7 be 32 58 04 3e
       0.23106581 -0.3075155 -0.3896452 0.12924269
000290 ec ef b9 bd d1 c3 5e 3e b9 80 4f be 83 46 43 be
       -0.090789646 0.21754386 -0.20263948 -0.19069867
0002a0 20 b2 86 3d 83 fe d1 3e 0c 70 31 3e 0e 10 6f be
       0.065769434 0.4101449 0.17327899 -0.23345968
0002b0 c2 56 1a bf 0c 2e 15 bf 58 ce e8 be 28 10 7e be
       -0.6028863 -0.58273387 -0.45469928 -0.2481085
0002c0 73 f5 98 be bb d6 69 bf 7b bd a0 3e df 1a 59 be
       -0.29874763 -0.9134328 0.31394562 -0.21201657
0002d0 22 e9 96 be 62 f9 aa be b6 1c ad be 94 fc 16 bf
       -0.2947474 -0.3339339 -0.33810967 -0.58979154
0002e0 d1 15 30 bf 04 15 94 bf 72 10 56 bd ec e2 bb be
       -0.6878329 -1.1568913 -0.052261777 -0.36696565
0002f0 ce 4f b6 be 82 f0 8f be 75 a3 93 3e 24 51 a4 3e
       -0.3560776 -0.2811318 0.28835645 0.32093155
000300 f7 72 4d 3e ed c3 f4 3d c4 4f 03 3c 04 83 f3 be
       0.20063387 0.119514324 0.008014623 -0.47560894
000310 b6 54 2a bd 51 ef b1 be e4 57 4e 3e 0a 0e 5c be
       -0.041584693 -0.34752896 0.20150715 -0.2148973
000320 05 03 56 3e 4b 5d 46 be 35 1c 2a bf 25 5b a6 be
       0.2089959 -0.19371526 -0.6644929 -0.32491413
000330 dd 27 e6 3d f0 48 fe be 96 ed 20 be 2d 62 27 bd
       0.11238072 -0.49665022 -0.15715632 -0.040865112
000340 ea 46 08 3e f7 a0 21 3e 97 48 03 bc 90 8d a8 bc
       0.13308302 0.1578406 -0.008012912 -0.020575315
000350 bc 05 16 be 45 93 b7 3d 11 58 8a 3c 04 d7 82 be
       -0.14650625 0.08963636 0.016887696 -0.2555467
000360 56 7a 72 bd a7 ec c8 be c5 60 3e be dd a6 1f 3e
       -0.0591987 -0.3924305 -0.18591602 0.15590997
000370 81 99 86 bb 3d df 68 bd 06 d7 52 3d 21 e8 9b bd
       -0.0041076546 -0.05685352 0.051474594 -0.076126345
000380 6f a4 2e 3e f4 64 90 be ed d5 8a bd 57 93 2b bc
       0.17054914 -0.2820202 -0.06779084 -0.01047214
000390 26 e8 76 3d 22 f4 a6 bd 0b a7 af be fb 09 fb 3c
       0.060279988 -0.081520334 -0.3430713 0.030644407
0003a0 11 bc de be 50 d4 30 be 76 dc 87 be 77 79 e1 be
       -0.43502858 -0.17268491 -0.26535386 -0.44037983
0003b0 89 c7 7e be 2c b6 62 bf 86 f8 20 bf ee 11 72 3e
       -0.24880804 -0.8855922 -0.62879217 0.23639652
0003c0 97 40 fe 3d 7c d8 9c be aa 95 d1 be 01 d3 cf 3d
       0.12414663 -0.30633914 -0.40934497 0.10147668
0003d0 ab 15 e9 be 67 aa 6a bd c8 8c a7 bd 0e 7a 98 bd
       -0.45524344 -0.057291415 -0.08181149 -0.07445155
0003e0 b4 62 84 bd ba 7a 81 be 87 20 e6 be c2 0e 00 bf
       -0.064641386 -0.25288945 -0.4494669 -0.5002252
0003f0 17 48 97 bd b4 83 ae bd f8 d4 f0 3e 00 ce 77 3d
       -0.07386797 -0.08521214 0.47037482 0.06049919

__linear_1.bias f4 [64]
000000 1c e0 fa bd d3 37 9c be be 84 99 3e 49 82 63 be
       -0.12249777 -0.3051134 0.29984087 -0.22217669
000010 2d 53 d0 bd 07 4a 83 3e 14 25 41 be bf 54 ca 3e
       -0.101721145 0.25642416 -0.188618 0.3951778
000020 8c c2 09 be dd b1 5f be 25 1a 41 be c1 59 08 be
       -0.1345312 -0.21845193 -0.1885763 -0.13315488
000030 67 e4 65 3c 4e 38 b9 be a1 f5 38 3e 2a e6 d9 be
       0.014031506 -0.3617577 0.1806245 -0.42558414
000040 5e 2a 89 be 35 ea 40 bd e6 3d 95 3e 6c 92 07 be
       -0.26790136 -0.047098357 0.29148787 -0.1323945
000050 c7 d5 dc 3e 80 17 48 be 98 73 6f 3f a4 6a 4b bd
       0.4313185 -0.19540215 0.9353576 -0.049662247
000060 32 ce 8c be 04 e8 0f bf f1 4e 9b 3e c4 bb 57 3e
       -0.27501065 -0.562134 0.30333665 0.2106772
000070 07 98 ec bc 83 d9 a1 bd f8 2a 36 be 5a e2 3e be
       -0.028881086 -0.07902815 -0.17789829 -0.18641034
000080 0d eb 03 3c 3a 7c 19 be b5 86 44 be 27 3a c5 3c
       0.008051646 -0.14988795 -0.19192012 0.02407558
000090 48 55 c1 bd 6b 95 dd 3d 1d d7 0c bf 25 bf be be
       -0.09440094 0.10819515 -0.55015737 -0.37255207
0000a0 1d 72 8a 3e f8 68 db 3d 91 05 1e bf 17 3e 50 bf
       0.27040187 0.107133806 -0.61727244 -0.8134474
0000b0 00 64 d1 3e 2b 10 de bd 3b b0 a8 bd 65 e8 ec be
       0.40896606 -0.108429275 -0.08236738 -0.46271053
0000c0 18 f4 86 3d 41 18 1e be 1f 8c 2e bd c4 47 d7 be
       0.06589526 -0.1543894 -0.0426141 -0.4204694
0000d0 24 c4 0f be a2 b1 61 be cc 93 dd 3e f6 11 04 bf
       -0.14039665 -0.22040418 0.43276823 -0.51589906
0000e0 cf 55 cf 3b 5a 97 3f 3f 27 46 2c be 82 dc 72 3d
       0.006327368 0.7484032 -0.16823636 0.059292324
0000f0 18 70 08 bf 1f 42 0d be cf 9c dd be 16 cf d5 3e
       -0.5329604 -0.13794754 -0.43283698 0.41759557

__linear_2.weight f4 [2, 64]
000000 49 33 f9 3c b9 5c 8d be 09 64 41 3e 63 19 cd bb
       0.030419962 -0.27609804 0.18885817 -0.00625913
000010 1a 42 a7 be b8 57 4b 3c b5 5d 69 be e0 2b 85 3f
       -0.3266762 0.0124110505 -0.22789653 1.0404015
000020 70 f5 52 bd 97 65 04 bf 98 2d 89 bf 40 6d e3 bc
       -0.0515036 -0.51717514 -1.0717039 -0.027762055
000030 28 cf 4a 3f d4 80 33 bd 3e 74 5c 3f 34 33 52 bf
       0.79222345 -0.043824032 0.8611487 -0.8210938
000040 d2 3e 48 bf e7 7c ac 3f b9 85 64 3f 52 17 f1 3e
       -0.78220856 1.3475617 0.89266545 0.47088104
000050 20 a5 62 be e9 11 cb 3d bb 90 d8 bd 5f 6e db 3d
       -0.22133303 0.099155255 -0.1057448 0.10714411
000060 53 f4 02 bf aa cc ee be a6 05 f8 be 32 f9 aa 3f
       -0.5115406 -0.4664052 -0.4844181 1.3357298
000070 64 e8 7d bc 7e 30 c1 3d 02 39 43 bf 39 41 c9 3e
       -0.015497301 0.09433077 -0.7625886 0.39307573
000080 3b 50 14 3f be 93 5c bc 93 fa 0f bc bf 42 e8 3e
       0.5793492 -0.013462959 -0.008787769 0.45363423
000090 f1 7c 13 bf 26 06 e6 be a4 1e 98 3e b3 c0 e2 be
       -0.5761252 -0.44926566 0.29710877 -0.44287643
0000a0 6b 58 86 3e 9e 95 bc 3e 0b 86 46 bd ae ee eb bd
       0.26239333 0.368329 -0.048467677 -0.11520134
0000b0 a1 d1 15 3f ac 07 38 bc 26 cf 68 bc 01 ef 04 bf
       0.58522993 -0.011232298 -0.014209544 -0.5192719
0000c0 c6 6e 1d 3f 67 44 bf 3e 0d 2c 95 3c 46 ea d5 be
       0.6149715 0.37356874 0.018209482 -0.417803
0000d0 3b cd 7d 3c f6 9a 0b 3f 29 18 a4 be 36 03 5c 3d
       0.015490825 0.54533327 -0.32049683 0.053714
0000e0 b9 cb 6e 3f 52 8c 6b 3f 24 a5 67 3d 56 59 32 bf
       0.93279606 0.92010987 0.056553975 -0.69667566
0000f0 37 25 19 bf 1d 4a 48 3f 38 ab 05 bf 07 08 73 3e
       -0.5982241 0.7823809 -0.52214384 0.23733531
000100 f3 e4 f5 be 09 8d 1f bf eb e5 df be 70 a6 27 bd
       -0.48026237 -0.6232458 -0.437301 -0.04093021
000110 84 c7 c7 3d f6 69 63 3f f0 b1 6a be 4e 77 9d be
       0.097548515 0.8883356 -0.2291944 -0.30755085
000120 49 8e ca bc 25 dc c7 be dd aa 9e 3f 18 0e 4c be
       -0.02472605 -0.39035144 1.2395893 -0.19927251
000130 d7 dd ba 3d b0 b6 0b 3f 3f 55 20 be 31 2e 00 3f
       0.09124344 0.54575634 -0.15657519 0.5007048
000140 94 95 ac be d8 af f0 3d a8 45 19 be 9a f8 e0 3e
       -0.3370787 0.117522895 -0.14967978 0.43939668
000150 99 0c 73 bf 86 28 e8 3d a7 1f 99 bf 8c 57 fe 3d
       -0.949411 0.11335854 -1.1962785 0.12419042
000160 bb ac 59 3f 92 e6 69 3f 27 27 5d bf 6c 5c 33 bf
       0.8502919 0.9136745 -0.86387867 -0.700629
000170 52 28 b2 3d 00 7e da 3e 15 b2 ef 3c 21 b1 10 be
       0.08699097 0.42674255 0.02925972 -0.1413007
000180 70 44 80 bc 22 cb 79 3d 8b 32 78 3b 6d 29 22 3f
       -0.015657634 0.06098474 0.0037871923 0.6334446
000190 e2 c4 9c 3c d7 7c 18 bf 1d ea 6c 3f 63 91 ce 3e
       0.01913685 -0.5956549 0.9254473 0.40345296
0001a0 7b e9 38 3e 1a 15 8f bf ed 4a c7 3d 01 8e 88 3f
       0.18057816 -1.1178315 0.09731088 1.0668336
0001b0 4d 77 d5 be 87 31 0a 3e a1 e9 98 3d 13 e3 03 3f
       -0.41692582 0.13495456 0.07466436 0.5151836
0001c0 d8 fa a0 be e3 2f ff bf 02 d3 87 bc 5b 05 b6 3e
       -0.3144138 -1.9936489 -0.016580109 0.3555096
0001d0 e9 20 a3 bc 05 ef 83 3e 89 2f 9a be d0 ba 87 bf
       -0.019913154 0.25768295 -0.3011439 -1.0603886
0001e0 1f 36 12 3f c2 7a bb be 1b 1e 22 3b 41 3c 2a bf
       0.5711383 -0.36617094 0.0024737183 -0.6649819
0001f0 8f 81 0f 3f 86 5b 26 3f 3e 8b 32 3f 38 81 ab bf
       0.56057066 0.64983404 0.69743717 -1.339881

__linear_2.bias f4 [2]
000000 ed 27 c9 3e 67 fa 8d bf
       0.39288273 -1.1092042
