agent_actor.pt (torch_old, 24637 bytes, 6 tensors)

__linear_0.weight f4 [64, 24]
0	0x3ccfd283	0.025368934
1	0x3ee0e1a5	0.43922153
2	0x3e4357cc	0.1907646
3	0x3bab8bb0	0.005235158
4	0xbeb5e3cb	-0.35525355
5	0xbf848e8d	-1.0356003
6	0x3dc0d6d8	0.09415978
7	0xbe450df4	-0.19243604
8	0x3e8d571e	0.27605528
9	0x3ec28d17	0.37998268
10	0xbef9146d	-0.48648396
11	0xbe61d1ea	-0.22052732
12	0xbe0efd88	-0.13963902
13	0xbea43fc3	-0.32079896
14	0xbf0bb739	-0.5457645
15	0xbe48ef4e	-0.19622537
16	0x3e9e883a	0.30963308
17	0x3f01f6e2	0.5076734
18	0xbf21c1bb	-0.63186234
19	0xbe93b0d4	-0.28845847
20	0xbe38e514	-0.18056136
21	0x3f2ecf0b	0.6828467
22	0xbf208d5b	-0.6271569
23	0xbed55490	-0.4166608
24	0x3e9a34bc	0.30118358
25	0xbd37626b	-0.044771593
26	0x3de3a4eb	0.1111544
27	0x3ecf8926	0.40534323
28	0xbea9b58b	-0.3314632
29	0x3f86cafc	1.0530696
30	0x3e456059	0.19275035
31	0x3e460bb8	0.19340408
32	0x3e5665d2	0.20937279
33	0xbe96a595	-0.29423204
34	0x3ec059bb	0.3756846
35	0xbe3daf1c	-0.1852383
36	0xbf79fbdd	-0.9764994
37	0x407380c1	3.8047335
38	0x3e1e611b	0.1546673
39	0x3df665bb	0.12031122
40	0x3e3192a4	0.17341095
41	0xbdedab5e	-0.11604951
42	0xbb93cef4	-0.0045107547
43	0x3edac6d6	0.42729825
44	0xbf7bbef2	-0.98338234
45	0x4015a482	2.3381658
46	0xbc139834	-0.009008456
47	0x3e813f50	0.25243616
48	0xbe49a48b	-0.19691674
49	0x3e08627b	0.13318817
50	0x3d4c4ef2	0.049879976
51	0x3c0e8d21	0.00870064
52	0x3e199b23	0.15000586
53	0xc0027e14	-2.0389452
54	0x3e33b824	0.17550713
55	0x3d294394	0.041324213
56	0xbea9e902	-0.33185583
57	0x3e94c6a2	0.29057795
58	0x3ef45def	0.47727916
59	0x3ee3a7d5	0.44463983
60	0x3dd965a7	0.10615092
61	0xc08e2f0c	-4.443243
62	0x3ea7126b	0.3263124
63	0x3ec96462	0.39334399
64	0xbe4f734a	-0.20258823
65	0x3e0b97e1	0.13632156
66	0xbd9ae4f8	-0.075632036
67	0xbeedbec4	-0.46434605
68	0x3e16e58b	0.14736001
69	0xc064ac50	-3.5730171
70	0x3bbeee46	0.0058267443
71	0xbe966687	-0.29375097
72	0xbf0ec045	-0.5576213
73	0xbca1435d	-0.019685442
74	0xbe35bd91	-0.17748095
75	0xbe827cbd	-0.25485793
76	0x3cd0ed02	0.02550364
77	0xbfcfd796	-1.6237667
78	0x3e30f7cd	0.17282028
79	0xbec60f9d	-0.38683787
80	0xbeba42dd	-0.36379138
81	0x3e0d2a1b	0.13785593
82	0x3d598a78	0.05311057
83	0xbf095730	-0.5364866
84	0x3e4146cb	0.18874662
85	0xc081ba79	-4.054013
86	0xbcd265aa	-0.025683243
87	0xbe41951a	-0.18904534
88	0xbe5bfd2c	-0.21483296
89	0x3e38f002	0.18060306
90	0x3d6021d1	0.05471975
91	0xbf838815	-1.0275904
92	0x3ea6ec9b	0.3260239
93	0xc04add85	-3.1697705
94	0xbe4ddda0	-0.20104074
95	0xbf8db57c	-1.107101
96	0x3e49af99	0.19695891
97	0x3c335526	0.010945594
98	0xbd90c2dd	-0.07068417
99	0x3eb818b8	0.3595636
100	0xbf14c958	-0.58119726
101	0x3ff7b236	1.9351261
102	0x3e817976	0.2528798
103	0x3ebf8b13	0.37410793
104	0xbc73ba78	-0.014876001
105	0xbdd23501	-0.10264016
106	0x3e4dfaff	0.20115279
107	0x3f0e4ba1	0.5558415
108	0xbf66b1ad	-0.9011486
109	0x4058c9f2	3.3873258
110	0xbd855dd5	-0.06512038
111	0x3ec2b218	0.380265
112	0xbd920c0c	-0.07131204
113	0xbe8ac952	-0.2710672
114	0x3e956374	0.2917744
115	0x3ee1a563	0.44071493
116	0xbeab026b	-0.33400282
117	0x4022189a	2.5327516
118	0x3dc0d187	0.09414964
119	0x3f3bae59	0.7331291
120	0xbea6d00f	-0.3258061
121	0x3d3e9692	0.046530314
122	0xbe062b5e	-0.13102481
123	0xbe4d5b0b	-0.20054261
124	0x3df6ba8f	0.12047302
125	0xc004342a	-2.0656838
126	0xbea27191	-0.3172727
127	0x3d056e5d	0.032575954
128	0xbec61d99	-0.38694456
129	0x3e935725	0.28777424
130	0xbe450233	-0.1923912
131	0xbed1ae74	-0.4095341
132	0x3ea14ada	0.3150242
133	0xc04662c7	-3.099779
134	0xbe113c8f	-0.14183258
135	0xbf0a8357	-0.5410666
136	0xbe0c21b3	-0.1368473
137	0x3e8d0f41	0.275507
138	0xbec1703a	-0.37780935
139	0xbfa75638	-1.3073187
140	0x3e810bfc	0.25204456
141	0xc025627a	-2.5841355
142	0xbea8b58c	-0.3295101
143	0xbfca1222	-1.5786784
144	0x3f00d9db	0.5033242
145	0xbeedc092	-0.46435982
146	0xbe910bd0	-0.28329325
147	0xbc264caa	-0.010150114
148	0xbf4144aa	-0.754954
149	0x3f3194a7	0.6936745
150	0xbef60c45	-0.48056236
151	0xbea3159b	-0.3185242
152	0x3f0d3512	0.55159104
153	0xbef40e8f	-0.47667357
154	0x3e91be1e	0.2846536
155	0x3ebf7ab4	0.37398303
156	0xbef03bca	-0.46920615
157	0x400e942f	2.2277944
158	0x3edaa16e	0.42701286
159	0x3f1060c9	0.5639768
160	0xbe0fde81	-0.14049722
161	0xbee510a8	-0.4473927
162	0x3e025a5f	0.12729786
163	0x3f801837	1.000739
164	0xbb112deb	-0.0022152613
165	0x4031721b	2.7725894
166	0x3d19d0b3	0.037552547
167	0x3f72b188	0.9480214
168	0xbeaf7242	-0.3426686
169	0xbe76a230	-0.24085307
170	0xbe972e7f	-0.2952766
171	0xbef9752c	-0.48722208
172	0x3de1e734	0.110304266
173	0xbff2272c	-1.8918204
174	0xbe3320ac	-0.17492932
175	0xbeae89dc	-0.34089553
176	0xbe3f9835	-0.18710406
177	0x3d9852d3	0.074376725
178	0x3c1edfa5	0.009696876
179	0xbeea6687	-0.45781347
180	0x3ea42ff5	0.32067838
181	0xc06f5db2	-3.7400937
182	0xbe929eeb	-0.2863687
183	0xbf1be694	-0.6089871
184	0xbf01efcf	-0.50756544
185	0x3ea26bdb	0.31722912
186	0xbcfa25b5	-0.030535558
187	0xbfb8a919	-1.4426605
188	0x3e9dd09d	0.30823222
189	0xc02f3afc	-2.7379751
190	0xbd9e608d	-0.07733259
191	0xbfc4918c	-1.5356917
192	0x3f21a0e3	0.6313612
193	0x3e1d3ba5	0.15354784
194	0x3ef17d40	0.4716587
195	0xbe88e434	-0.26736605
196	0xbebb6c99	-0.3660629
197	0x3ec524fe	0.38504785
198	0x3ef571f8	0.47938514
199	0xbed7dc32	-0.42160183
200	0x3f30c237	0.6904635
201	0x3ebb7c3d	0.36618224
202	0xbe338f7e	-0.17535207
203	0x3ec2a40d	0.38015786
204	0xbef9499a	-0.48688966
205	0x3f0e5b9c	0.55608535
206	0xbea70460	-0.32620525
207	0x3eb0fad0	0.34566355
208	0x3f41f211	0.7575999
209	0x3e42068d	0.18947811
210	0xbe1c34ad	-0.15254469
211	0x3f8a6b80	1.0814056
212	0xbf29c424	-0.6631491
213	0x3f8d52d1	1.1040899
214	0xbe957bda	-0.29196054
215	0x3f8bc0c8	1.0918207
216	0x3e3278d7	0.17428909
217	0x3eb2322a	0.34803897
218	0x3e2380f1	0.15967156
219	0x3e2ae7f2	0.16690043
220	0xbe45281f	-0.19253586
221	0x3f03019d	0.51174337
222	0x3e929459	0.28628805
223	0xbe097e54	-0.13427097
224	0x3e826e6b	0.25474867
225	0x3eabc3ec	0.33547914
226	0x3e9bb60e	0.30412334
227	0x3e03fe28	0.12889922
228	0xbf0eef03	-0.5583345
229	0x402cc0d6	2.6992698
230	0x3d2c8973	0.04212327
231	0xbe0c6b6f	-0.13712858
232	0x3d5f4469	0.0545086
233	0x3cb29aa4	0.021802254
234	0x3e70242c	0.23451298
235	0xbee6cbbd	-0.45077315
236	0xbf3a3f5f	-0.72752947
237	0x3faac281	1.3340608
238	0x3c688bac	0.014193457
239	0xbf16537a	-0.58721125
240	0x3f4c3b09	0.7977758
241	0x3ef8aa00	0.485672
242	0x3db58756	0.08863704
243	0x3e14eeb0	0.14544177
244	0xbde7813b	-0.11303946
245	0xbea4af52	-0.3216501
246	0xbe248ae3	-0.16068606
247	0x3e105313	0.1409419
248	0x3f3876d3	0.7205631
249	0x3ef27a02	0.4735871
250	0x3c8f8d98	0.017523572
251	0xbe92489c	-0.28571022
252	0xbd55437e	-0.05206632
253	0xbeb21077	-0.34778187
254	0xbd839f5e	-0.06426881
255	0xbe5f67ca	-0.21816936

__linear_0.bias f4 [64]
0	0xbf12260a	-0.57089293
1	0xbd583eae	-0.05279415
2	0xbe78dc85	-0.24302872
3	0xbe6e35ce	-0.23262712
4	0x3e879eba	0.26488286
5	0xbee4cab0	-0.44685888
6	0x3ed7ad03	0.42124185
7	0xbc62b86b	-0.013837914
8	0xbe73b931	-0.23801114
9	0x3d0304d1	0.031987015
10	0xbd2fb540	-0.042897463
11	0xbe5cf540	-0.2157793
12	0x3ec346b1	0.3813987
13	0x3bc4ad19	0.00600208
14	0x3ed9acac	0.4251455
15	0xbdbe53b7	-0.09293311
16	0xbe8ca0fc	-0.2746657
17	0xbe8144ea	-0.2524789
18	0xbd77a31c	-0.060458288
19	0xbeef0f33	-0.46691284
20	0x3d68a411	0.05679709
21	0x3cd14285	0.025544414
22	0xbead88f6	-0.33893555
23	0xbef929c7	-0.48664686
24	0xbf245e97	-0.6420683
25	0x3d17a45f	0.03702199
26	0x3da60223	0.08105876
27	0xbe4e0890	-0.20120454
28	0xbe209dff	-0.1568527
29	0xbe877d04	-0.26462567
30	0xbe0d545d	-0.13801713
31	0x3ec56795	0.3855559
32	0xbebde2f5	-0.37087217
33	0xbe59f518	-0.21284902
34	0xbddf11c5	-0.10892061
35	0xbe1776bf	-0.14791392
36	0x3e8d6182	0.27613455
37	0xbb345134	-0.002751422
38	0xbe5c0728	-0.21487105
39	0x3e484ad6	0.19559798
40	0xbe03c2f9	-0.12867345
41	0xbc119aa0	-0.008886963
42	0xbed24de9	-0.41075066
43	0x3f0dce46	0.55392873
44	0xbe0e8401	-0.13917543
45	0xbea08641	-0.31352428
46	0xbd82496c	-0.0636166
47	0x3e0ad96c	0.13559502
48	0xbe953fa8	-0.29150128
49	0xbe0a0123	-0.13476996
50	0xbe3cbff1	-0.18432595
51	0xbdb54214	-0.08850494
52	0xbdee47c8	-0.11634785
53	0xbe21c100	-0.1579628
54	0x3e37fb37	0.17966925
55	0xbdfbd70a	-0.12296875
56	0xbeb2151e	-0.34781736
57	0xbe96929e	-0.29408735
58	0x3dd4149d	0.10355494
59	0xbe31e940	-0.17374134
60	0xbd8a1f1b	-0.06744214
61	0x3e5e2fc9	0.21697916
62	0xbd42c9a5	-0.047555584
63	0xbf1db243	-0.6160013

__linear_1.weight f4 [64, 64]
0	0x3e0f5db4	0.14000589
1	0x3f3acfdb	0.7297341
2	0xbef3d4c0	-0.47623253
3	0xbdca311a	-0.09872647
4	0x3f251ecb	0.6450011
5	0xbed62e16	-0.41832036
6	0x3f094f2d	0.5363644
7	0xbcd19fb4	-0.025588848
8	0x3ed2ca43	0.41169938
9	0x3e0b65c0	0.13613033
10	0xbc3ffe93	-0.01171841
11	0x3e1fe849	0.15615954
12	0x3e76ca0e	0.24100515
13	0x3ee358a2	0.4440356
14	0x3f81d61e	1.0143468
15	0x3db7fce7	0.08983784
16	0xbf2bc070	-0.6709051
17	0xbef8bf3d	-0.48583403
18	0x3e7515e0	0.23934126
19	0x3eb058d1	0.34442762
20	0x3f501474	0.8128121
21	0x3f26ab5b	0.6510522
22	0xbf21967c	-0.63120246
23	0x3e8d0859	0.2754543
24	0x3dce0716	0.10059945
25	0x3e8f02dd	0.27931872
26	0x3f59caf4	0.85075307
27	0x3e7e6424	0.24842888
28	0xbcbf7990	-0.023373395
29	0xbf169aca	-0.5882994
30	0xbede725a	-0.43446618
31	0xbe5ff15c	-0.21869415
32	0xbf1068f0	-0.5641012
33	0xbf0fc78c	-0.5616386
34	0xbed096ee	-0.4074015
35	0x3eaf41ba	0.34229833
36	0xbe248d67	-0.16069566
37	0xbe7e04ca	-0.24806514
38	0xbe8e7327	-0.2782223
39	0xbe45c5cc	-0.19313735
40	0x3ed7bcd6	0.42136258
41	0x3e91211b	0.2834557
42	0x3ddb7f18	0.107176006
43	0x3f109658	0.56479406
44	0x3dbea4d1	0.0930878
45	0xba2afaa0	-0.00065223314
46	0x3dd81675	0.10551158
47	0x3f211872	0.62927926
48	0x3e8536ca	0.26018363
49	0xbee454ce	-0.4459595
50	0x3e28699d	0.16446538
51	0x3e317ff1	0.17333962
52	0x3e192bdd	0.14958139
53	0x3f01e08e	0.5073327
54	0x3e95fa50	0.29292536
55	0xbe68f16d	-0.22748347
56	0xbc8133a8	-0.015771702
57	0x3ec471c3	0.38368043
58	0x3f8a56d9	1.0807754
59	0x3e870db1	0.26377633
60	0xbf1bae83	-0.6081316
61	0x3e1d6a9e	0.15372702
62	0x3dc62879	0.09675688
63	0x3d5913f1	0.052997533
64	0x3d245a42	0.04012514
65	0xbbc613cb	-0.00604484
66	0xbe0555f7	-0.13021074
67	0x3bb5c8dc	0.005547626
68	0xbdf763a6	-0.12079553
69	0xbde6d395	-0.11270825
70	0xbd34e2e0	-0.044161677
71	0xbe418828	-0.18899596
72	0x3db44cb7	0.08803695
73	0xbe21348f	-0.15742706
74	0x3c9bc308	0.019013897
75	0xbe9650d5	-0.29358545
76	0xbe94f2b0	-0.29091406
77	0xbe12a383	-0.14320187
78	0xbde1ded2	-0.11028828
79	0x3de0e9fb	0.10982128
80	0xbc8a7fbd	-0.016906613
81	0xbe7132a6	-0.23554477
82	0xbe12495b	-0.14285795
83	0xbcb81d00	-0.022474766
84	0x3d5a7689	0.0533357
85	0xbe09cc82	-0.1345692
86	0x3c27455d	0.010209409
87	0xbdf2f592	-0.11863245
88	0x3c941ada	0.01807921
89	0xbe17d77b	-0.14828293
90	0x3e114c4e	0.14189264
91	0xbdc630a0	-0.09677243
92	0xbe0cbac7	-0.13743125
93	0xbe776ac1	-0.24161817
94	0xbe54c864	-0.20779568
95	0xbd609e70	-0.054838598
96	0xbe81a1a3	-0.25318632
97	0xbe6648df	-0.22488736
98	0xbdf55906	-0.119798705
99	0xbb86af0e	-0.0041102236
100	0x3b4b700c	0.0031042127
101	0x3d375845	0.044761915
102	0xbd6006c4	-0.054693952
103	0x3c9b6cc6	0.018972766
104	0xbdf52d9e	-0.119715914
105	0xbe883d78	-0.26609397
106	0xbcd19c8e	-0.025587346
107	0xbd03d647	-0.032186773
108	0x3dbb7e1b	0.09154912
109	0x3cf75248	0.030190602
110	0xbdd5e597	-0.104441814
111	0xbe07c9e9	-0.13260616
112	0xbe49de9d	-0.19713826
113	0x3d5ed253	0.0543998
114	0x3e0cc8cc	0.13748473
115	0xbd7848fd	-0.060616482
116	0xbc25d330	-0.010121152
117	0x3c487a01	0.012236119
118	0x3ca84917	0.020542664
119	0xbc3cbc39	-0.011519485
120	0xbdc077cf	-0.09397852
121	0xbdca6d28	-0.09884101
122	0xbd7eb5c5	-0.062185068
123	0xbe2faf34	-0.17156678
124	0xbc38976f	-0.011266573
125	0xbdfe75a0	-0.12424779
126	0xbe938cca	-0.2881835
127	0x3c03974a	0.008031676
128	0x3cb16de5	0.021658847
129	0x3f3b73cf	0.73223585
130	0xbd9eaca8	-0.07747775
131	0xbe80c6a6	-0.25151557
132	0x3dc36ac6	0.0954185
133	0xbf06637b	-0.52495545
134	0x3dc56a12	0.09639372
135	0xbe952729	-0.2913144
136	0x3df8c66e	0.121472225
137	0x3e90c861	0.28277877
138	0xbd9e804f	-0.07739317
139	0xbeca8aeb	-0.3955911
140	0x3dd586c6	0.104260966
141	0x3edb5874	0.42840922
142	0x3f37ab4a	0.7174574
143	0xbec0d88f	-0.3766522
144	0xbf160288	-0.5859761
145	0xbeec0326	-0.46096152
146	0x3e166402	0.14686587
147	0x3e8d63ff	0.27615353
148	0x3f2bc584	0.6709826
149	0x3f5f7156	0.8728231
150	0xbee3c6d1	-0.44487622
151	0xbe0c723d	-0.13715453
152	0x3bb7ab07	0.005605105
153	0xbe9624e2	-0.29325014
154	0x3e73b4e4	0.23799473
155	0x3e82a776	0.25518388
156	0xbf047083	-0.5173418
157	0xbee3a073	-0.4445835
158	0xbe8f699a	-0.28010255
159	0xbf0b8b12	-0.5450908
160	0xbead7b98	-0.33883357
161	0xbf266243	-0.64993685
162	0xbecc36a9	-0.39885452
163	0x3cb3e1e7	0.021958305
164	0xbdaeb735	-0.08531038
165	0xbe8a5782	-0.27019888
166	0xbed8e3c6	-0.42361277
167	0xbb9e25de	-0.0048262915
168	0xbc624702	-0.013810875
169	0x3e6c4c1b	0.23075907
170	0xbe1ca02f	-0.1529548
171	0xbd4453c2	-0.04793144
172	0x3ddcd64f	0.107830636
173	0xbd366908	-0.04453376
174	0xbdfb26f6	-0.122632906
175	0x3f0e3e52	0.55563843
176	0xbd6c1b65	-0.057643313
177	0xbdb50468	-0.08838731
178	0x3e97bbd9	0.29635504
179	0x3dcc799e	0.09984134
180	0x3eb831d1	0.35975507
181	0x3e8c082b	0.27349982
182	0x3df89d57	0.12139385
183	0xbf11363f	-0.567234
184	0xbd94650a	-0.07245834
185	0x3e7d5644	0.24739939
186	0x3f87dffd	1.0615231
187	0x3e2e09a5	0.16995867
188	0xbd253965	-0.04033794
189	0x3e6784a5	0.22609194
190	0xbdc3a211	-0.09552396
191	0x3d6c223e	0.057649843
192	0xbde1d993	-0.11027827
193	0xbddaeffc	-0.10690305
194	0xbe5059f7	-0.20346819
195	0xbdc73b29	-0.09728081
196	0xbc938eb3	-0.01801238
197	0xbc5970a9	-0.013271489
198	0xbe505878	-0.20346248
199	0xbe948860	-0.29010296
200	0xbe484f27	-0.19561444
201	0x3ba7e282	0.0051234374
202	0xbdaaa7d8	-0.08332795
203	0x3d1542cd	0.03644066
204	0xbe38e68b	-0.18056695
205	0xbd1036fb	-0.035208683
206	0xbe7b023a	-0.24512568
207	0xbdf5bc43	-0.11998799
208	0xbd54db9f	-0.05196726
209	0x3cc6b201	0.0242548
210	0xbdd75718	-0.10514659
211	0x3ca3a291	0.019974979
212	0x3bb701bc	0.0055849236
213	0x3d8ef0b7	0.069795065
214	0x3c312f62	0.01081452
215	0xbd2c5a0f	-0.042078074
216	0x3de4ba5a	0.11168356
217	0x3da0ed0a	0.078577116
218	0xbdb6ca9d	-0.08925364
219	0x3e0d64fb	0.13808052
220	0xbe299702	-0.16561511
221	0xbe26da68	-0.16294253
222	0x3daa0de1	0.083034284
223	0x3b24b900	0.0025134683
224	0xbcece38b	-0.028917095
225	0x3d360fa6	0.044448517
226	0xbd52ce30	-0.051466167
227	0xbdb767a9	-0.089553185
228	0x3b143aea	0.0022618123
229	0xbe763356	-0.2404302
230	0xbdd78cf1	-0.10524929
231	0x3c92119f	0.017830668
232	0xbe330814	-0.1748355
233	0xbe49d559	-0.19710292
234	0x3c8f7f35	0.017516712
235	0xbe43f05f	-0.19134663
236	0xbdd81f36	-0.10552828
237	0x3e3195d7	0.17342316
238	0xbdbae9ef	-0.091266505
239	0xbdcd30ad	-0.1001905
240	0xbe06ca86	-0.13163194
241	0xbd77885b	-0.060432773
242	0xbd99a74a	-0.07502611
243	0xbe1da6b5	-0.15395625
244	0x3d553cbc	0.052059874
245	0x3b7bb21c	0.0038405722
246	0xbda0ed08	-0.0785771
247	0x3d4b58f8	0.049645394
248	0x3db78c7a	0.08962341
249	0xbcd0c998	-0.025486752
250	0xbdab3062	-0.08358838
251	0xbe2778d6	-0.16354689
252	0x3c82b25b	0.015954187
253	0xbe047fcb	-0.12939374
254	0x3c3da1cb	0.011574219
255	0x3d7981cf	0.06091481

__linear_1.bias f4 [64]
0	0x3e6e3c09	0.23265089
1	0xbe933357	-0.28750107
2	0x3d15ac60	0.036541343
3	0xbe33a9e9	-0.17545284
4	0x3ceec78e	0.02914789
5	0xbd2862aa	-0.04110972
6	0xbdf1f363	-0.118140005
7	0x3e0de2c5	0.13856037
8	0x3dbde498	0.092721164
9	0x3d8e9ceb	0.069635235
10	0x3d496d20	0.049176335
11	0xbe47aa27	-0.19498502
12	0x3e7db72b	0.24776904
13	0xbe2ddd35	-0.16978915
14	0xbe2591ae	-0.16168854
15	0x3eb418d3	0.3517519
16	0xbe982147	-0.2971289
17	0xbe24e39e	-0.16102454
18	0x3ee77ba2	0.45211512
19	0x3d90ce1c	0.07070562
20	0xbe75f532	-0.24019316
21	0xbe7ee18e	-0.2489073
22	0xb954c146	-0.00020289895
23	0xbc627d7b	-0.013823862
24	0x3d21ffd9	0.039550636
25	0x3c85d0a6	0.016334843
26	0xbe9375cd	-0.28800812
27	0xbe3f2e81	-0.18670084
28	0xbda10bfd	-0.07863615
29	0x3e8cde1f	0.27513215
30	0xbea09f1c	-0.3137139
31	0xbcb651dc	-0.02225583
32	0x3d960008	0.07324225
33	0xba1e6ed8	-0.00060437387
34	0xbe4eec9f	-0.20207451
35	0x3e233c35	0.15940936
36	0xbcd05f71	-0.025436135
37	0xbc8f4901	-0.017490866
38	0x3da1fd65	0.07909659
39	0xbe325d65	-0.1741844
40	0x3ebc22e2	0.36745363
41	0xbce3b754	-0.027797379
42	0x3e65a9dd	0.22428079
43	0x3edb54af	0.42838046
44	0x3e6718e2	0.22568086
45	0xbe2b4dd8	-0.16728914
46	0xbe0fb83c	-0.14035124
47	0x3db497be	0.08818005
48	0x3e76b261	0.24091484
49	0xbe5556f2	-0.20833948
50	0xbd5010e2	-0.05079735
51	0x3e3dbb40	0.18528461
52	0x3dca2bad	0.09871612
53	0xbda07818	-0.07835406
54	0xbe676f71	-0.22601105
55	0xbe6bad58	-0.23015344
56	0xbd87838e	-0.06616889
57	0xbda6c826	-0.08143644
58	0xbf0581c0	-0.5215111
59	0xbdfb9da7	-0.12285929
60	0x3e2c2a14	0.16812927
61	0x3e2ed0f2	0.17071894
62	0xbe063098	-0.13104475
63	0xbe257ade	-0.16160151

__linear_2.weight f4 [2, 64]
0	0xbee4bd63	-0.4467574
1	0x3ceed7f0	0.029155701
2	0xbebdb322	-0.3705073
3	0xbbbe73d8	-0.0058121495
4	0xbc12d73b	-0.008962448
5	0xbde1bd48	-0.11022431
6	0x3f36d76e	0.7142247
7	0x3d969157	0.0735194
8	0xbf03e0c4	-0.5151484
9	0xba731103	-0.00092722493
10	0xbe5c4a39	-0.21512689
11	0xbe56059a	-0.20900574
12	0xbec00529	-0.37503937
13	0x3f4c42b6	0.7978929
14	0x3f507174	0.81423116
15	0xbec3d335	-0.38247076
16	0xbe36cb09	-0.1785089
17	0xba5ed737	-0.00085006974
18	0xbe99e625	-0.300584
19	0xbec0c0cc	-0.37647092
20	0x3dd7589a	0.10514946
21	0x3eb31a9a	0.34981233
22	0x3f50b0c4	0.8151972
23	0x3ca3bfd9	0.019988941
24	0xbe450caf	-0.1924312
25	0xbe5c36a0	-0.21505213
26	0x3f0718a8	0.52772
27	0x3f1905c6	0.59774435
28	0x3bab8483	0.0052343025
29	0xbf016777	-0.505485
30	0x3c95bae7	0.018277599
31	0x3f2287a5	0.6348823
32	0xbd52e8d4	-0.051491573
33	0x3e9809c8	0.29694963
34	0x3f56807e	0.83789814
35	0xbe9a5bc2	-0.3014813
36	0xbab2bf4d	-0.0013637334
37	0x3d0070df	0.031357642
38	0x3db9ba0b	0.09068688
39	0x3f1277bc	0.5721395
40	0xbf30819d	-0.68947774
41	0x37b8a15b	2.2009646e-05
42	0xbeb98e3d	-0.36241332
43	0xbee9e2df	-0.456809
44	0xbeb6d966	-0.35712737
45	0xbd343f75	-0.04400583
46	0x3f215ce1	0.63032347
47	0xbef7ebbb	-0.48422036
48	0xbf34652e	-0.7046689
49	0xbcb49147	-0.02204193
50	0x3e221770	0.15829253
51	0xbe9e1574	-0.30875742
52	0xbecf5048	-0.40490937
53	0x3b7535f4	0.0037416192
54	0x3f1dbf59	0.616201
55	0x3f38e2be	0.7222098
56	0xbe357093	-0.17718725
57	0x3c230595	0.009950061
58	0x3f0840e9	0.53224045
59	0x3c46ef73	0.01214205
60	0xbf09c9d7	-0.5382361
61	0xbdfbf82e	-0.12303196
62	0x3f00c03a	0.50293314
63	0xbea83b4f	-0.3285775
64	0xbe09a3fd	-0.13441463
65	0xbe43a8b4	-0.19107324
66	0xbc7fd70d	-0.015615237
67	0x3ccb12b6	0.024789196
68	0x3d6d7a79	0.057978127
69	0x3d39990e	0.04531198
70	0xbe272c41	-0.16325475
71	0xbf0da022	-0.5532247
72	0x3c8b5b20	0.017011225
73	0x3df065c9	0.11738164
74	0xbd3d6668	-0.04624024
75	0x3e054600	0.13014984
76	0xbde94f8d	-0.11392126
77	0xbd04e03c	-0.03244041
78	0xbd6072d9	-0.054797027
79	0xbe160b48	-0.14652741
80	0x3d593089	0.053024802
81	0xbe2c24ca	-0.16810909
82	0xbe9826a1	-0.29716972
83	0x3dd55aed	0.10417733
84	0xbe2f4061	-0.17114402
85	0xbc30e6b6	-0.010797193
86	0xbdf0351a	-0.11728878
87	0xbd519242	-0.051164873
88	0x3cce0295	0.025147716
89	0x3e00d16b	0.12579887
90	0x3dd78976	0.105242655
91	0xbd8153a0	-0.06314778
92	0x3d79ebc8	0.061015874
93	0xbcec106d	-0.028816426
94	0x3e03ef88	0.12884343
95	0xbe74a4b4	-0.23890954
96	0x3dd922f5	0.10602371
97	0xbe1887ed	-0.14895602
98	0xbe9543f8	-0.2915342
99	0x3c8291f9	0.015938746
100	0x3becd490	0.007227488
101	0x3d02d091	0.031937186
102	0x3df2ac55	0.11849276
103	0xbf1cb0cf	-0.6120729
104	0x3d004eba	0.03132508
105	0x3d99ee44	0.07516149
106	0xbdef6bfe	-0.1169052
107	0xbe7b5908	-0.24545681
108	0xbe4f7171	-0.20258118
109	0x3d89aa9e	0.06721996
110	0xbe322da8	-0.17400229
111	0xbc5694fc	-0.013097044
112	0x3da8862b	0.082287155
113	0xbdeaa25c	-0.11456749
114	0x3dd7d68d	0.10538969
115	0xbe63726b	-0.22211616
116	0xbdcb2c71	-0.09920586
117	0xbd05957c	-0.032613263
118	0xbd96771d	-0.07346938
119	0x3d7f3a8d	0.062311698
120	0x3e3ecd83	0.18633084
121	0x3d3a9692	0.04555375
122	0xbebcfbee	-0.36910957
123	0x3e195b1f	0.14976166
124	0xbc626d21	-0.013819964
125	0xbe0eb586	-0.13936433
126	0xbef48e32	-0.47764736
127	0x3e2378f2	0.15964106

__linear_2.bias f4 [2]
0	0xbe39cc62	-0.18144372
1	0xbdf2a452	-0.11847748
