agent_critic.pt (torch_old, 24889 bytes, 5 tensors)

__linear_0.weight f4 [64, 26]
0	0x3eab02f1	0.33400682
1	0x3fa67e9a	1.3007386
2	0xbddfecd6	-0.10933845
3	0x3f0a0c83	0.5392534
4	0x3dfcf470	0.1235131
5	0x3b97dc44	0.004634412
6	0xbb983564	-0.0046450365
7	0x3f007f37	0.50194114
8	0x3e5475c6	0.20748052
9	0x3f8ebe23	1.1151775
10	0x3d0837dd	0.0332564
11	0x3db00fb6	0.085967466
12	0x3de8a158	0.11358899
13	0xbe80edb5	-0.25181356
14	0xbc6eb8cd	-0.014570427
15	0x3dcc598a	0.09978016
16	0x3eb2573a	0.34832174
17	0x3fabe0be	1.3427961
18	0xbda41131	-0.080110915
19	0xbe717fad	-0.2358386
20	0xbe98d3d1	-0.29849103
21	0xbf843c24	-1.0330853
22	0xbcba1211	-0.022713693
23	0xbe9aa3ae	-0.30203003
24	0xbf88346f	-1.0641001
25	0x3eca5bc0	0.39523125
26	0x3dc4a981	0.09602643
27	0xbeb1e124	-0.3474208
28	0xbd456680	-0.048193455
29	0x3eef1137	0.4669282
30	0xbf1ec9e1	-0.6202679
31	0xc009ef4e	-2.155231
32	0x3d582a90	0.052774966
33	0x3eb65477	0.35611317
34	0x3ddac9a6	0.10682993
35	0xbe9e7cbe	-0.30954546
36	0x3de761ec	0.11297974
37	0x3e3e7b68	0.18601763
38	0x3b28210d	0.0025654465
39	0x3da98247	0.082768016
40	0xbdcf2792	-0.10114969
41	0xbd9b7ffc	-0.075927705
42	0x3c90518a	0.017617006
43	0x3b3e2d4e	0.0029018703
44	0xbdfe8357	-0.12427395
45	0x3dd2c8f5	0.10292236
46	0x3f67790b	0.9041907
47	0x4013dbc9	2.3102896
48	0x3e00fd97	0.12596737
49	0x3c3bcbb7	0.011462144
50	0x3d54aff5	0.05192562
51	0x3ce55c54	0.027998127
52	0x3f274349	0.65337044
53	0x3ec3b55a	0.38224298
54	0x3d086324	0.033297673
55	0x3e90c792	0.2827726
56	0xbe3ad02f	-0.18243478
57	0xbf1686cd	-0.5879944
58	0xbc94624d	-0.01811328
59	0x3eac7c2c	0.33688486
60	0x3f156f2d	0.58372766
61	0x3ed88d39	0.42295244
62	0xbd2a7244	-0.04161288
63	0x3f645c62	0.89203465
64	0xbdb463c3	-0.088080905
65	0xbf31801f	-0.6933612
66	0x3d35a9f8	0.044351548
67	0x3f3304da	0.6992928
68	0x3f05e5f0	0.5230398
69	0x3f390723	0.72276515
70	0xbd571a40	-0.05251527
71	0x3f0850a9	0.5324808
72	0x3d2e28cb	0.042519372
73	0xbe920ae3	-0.2852393
74	0xbd911440	-0.070839405
75	0x3ef01b35	0.46895757
76	0x3f5f3066	0.87183225
77	0x3eef5b6d	0.4674944
78	0x3e8f079b	0.2793549
79	0x3e9b8ea3	0.3038226
80	0xbd8b1ca3	-0.067925714
81	0x3d06da2c	0.03292291
82	0xbd5d983c	-0.05410026
83	0xbd80050e	-0.06250964
84	0xbc374575	-0.011185993
85	0xbda0fbd1	-0.0786053
86	0x3eef4db7	0.4673898
87	0x3e1e8a3b	0.15482418
88	0xbd210f52	-0.03932125
89	0xbe52b393	-0.20576315
90	0xbd68e108	-0.05685523
91	0xc0841947	-4.1280856
92	0x3dfe9dd5	0.12432448
93	0xbe6d4374	-0.23170263
94	0x3eefcd32	0.4683624
95	0x3e95714b	0.29187998
96	0xbe02a243	-0.1275721
97	0xbea0eee0	-0.31432247
98	0xbf143eeb	-0.57908505
99	0x3fc3f343	1.5308613
100	0xbc8eca78	-0.017430529
101	0xbe8386b6	-0.25688714
102	0x3eb46bd5	0.3523852
103	0x3eed80a4	0.46387208
104	0x3dba9a4b	0.0911146
105	0x3f381030	0.718997
106	0xbbc37b8f	-0.005965657
107	0x3f7e35a2	0.9930059
108	0x3eba50d9	0.36389807
109	0x3ff96e91	1.9486867
110	0xba3d72cc	-0.0007226884
111	0x3f564b1e	0.8370837
112	0x3e63e5cb	0.22255628
113	0x3f756fa0	0.9587345
114	0xbb94a888	-0.004536692
115	0x3ef38722	0.47564036
116	0x3e99fa27	0.30073664
117	0x3fd5b7b3	1.6696686
118	0x3bd18ee4	0.0063952077
119	0x3e4a390c	0.19748324
120	0x3e9930b0	0.29919958
121	0x3f4dfdcb	0.8046538
122	0xbd8bd7ab	-0.06828245
123	0x3eb91052	0.36145264
124	0x3ddc3449	0.1075216
125	0xbc832ab9	-0.016011583
126	0x3d8cf3d9	0.06882448
127	0x3f06ea22	0.5270101
128	0x3f6e2678	0.9302745
129	0x3ed5a3bf	0.4172649
130	0x3ec8fb0e	0.3925404
131	0x3f208667	0.6270508
132	0xbc9bc5e1	-0.019015254
133	0x3e972db2	0.2952705
134	0x3ece7293	0.40321788
135	0xbe6a552b	-0.22884052
136	0xbd9a8a6b	-0.075459324
137	0x3e8996a7	0.2687275
138	0x3f11156d	0.5667332
139	0x3f274495	0.6533902
140	0x3da27ec0	0.07934332
141	0xbe1e22cd	-0.15442963
142	0x3cb82531	0.022478672
143	0xbf29c2ad	-0.66312677
144	0xbe21efcd	-0.15814133
145	0x3df25388	0.118323386
146	0x3ee64159	0.4497173
147	0x3e261b71	0.16221406
148	0x3d41286e	0.047157697
149	0xbe8471be	-0.25868028
150	0xbea6400e	-0.32470745
151	0x3dff3109	0.124605246
152	0xbe03061e	-0.12795302
153	0xbd4accab	-0.049511593
154	0x3f9940e3	1.1972927
155	0x3da5b27a	0.08090682
156	0x3e8e5890	0.27801943
157	0x3f16d78d	0.58922654
158	0x3d63fad7	0.05565914
159	0xbdbd1be8	-0.09233838
160	0xbe939154	-0.28821814
161	0x3e09cf07	0.13457881
162	0xbdf271ed	-0.11838136
163	0xbdd8f225	-0.105930604
164	0x3eb663d0	0.35623026
165	0x3f233a9f	0.63761324
166	0xbdee7b36	-0.11644594
167	0xbd2a39d2	-0.041559048
168	0x3e0e431d	0.13892789
169	0x3e69608a	0.22790733
170	0x3d2ecb35	0.042674262
171	0x3e38002b	0.17968814
172	0x3ee5d382	0.4488793
173	0x3f4c4397	0.79790634
174	0xbd090adc	-0.033457622
175	0xbe0145a0	-0.12624216
176	0x3cf2421e	0.029572543
177	0xbf94aaeb	-1.161466
178	0xbd1bf246	-0.038072847
179	0x3e2b11f6	0.1670607
180	0xbf02a1ca	-0.5102812
181	0x3e93dcd9	0.2887943
182	0x3ec25031	0.37951806
183	0x3f06b046	0.5261272
184	0xbd350fbe	-0.044204466
185	0x3e1c6afb	0.15275185
186	0x3eecb1c2	0.46229368
187	0x3e083d69	0.13304676
188	0x3c5bef86	0.013423806
189	0xbbf5d982	-0.0075027356
190	0x3efae9f9	0.49006632
191	0x3ee94f74	0.4556843
192	0xbdeaf899	-0.114731975
193	0x3cd421b2	0.025894973
194	0xbde27313	-0.11057105
195	0xbc48af2b	-0.012248795
196	0x3d51b656	0.05119928
197	0x3cc9e824	0.024646826
198	0x3ef4e53f	0.4783115
199	0x3ef8c008	0.48584008
200	0x3dac400f	0.08410656
201	0x3d7e8529	0.06213871
202	0xbe3deac4	-0.18546587
203	0xbfd48e45	-1.6605917
204	0xbe025a1c	-0.12729686
205	0x3e42113b	0.18951885
206	0x3f84ecab	1.0384725
207	0x3f3f4b83	0.74724597
208	0x3ebf541a	0.37368852
209	0x3f2406bf	0.64072794
210	0xbe1da124	-0.15393502
211	0xbe819487	-0.2530863
212	0xbe2db1bd	-0.16962333
213	0x3f73ad66	0.9518646
214	0x3dde206e	0.10846029
215	0xba2b1dc8	-0.000652757
216	0x3ef00e29	0.46885803
217	0x3ee2cf58	0.44298816
218	0x3d8b068e	0.067883596
219	0x3e7954b8	0.24348724
220	0xbed36229	-0.41285828
221	0x3ec23ba7	0.37936136
222	0x3d73e749	0.059546743
223	0x3e59222f	0.21204446
224	0x3fa37cd4	1.277247
225	0x3f2d1a7d	0.6761854
226	0xbddde53d	-0.10834739
227	0x3dc78855	0.097428
228	0xbf91fe8d	-1.1405808
229	0xc003bb70	-2.0583153
230	0x3dfd91ab	0.123812996
231	0x3e20ce22	0.15703633
232	0x3fbfacc3	1.4974598
233	0x3e373167	0.17889939
234	0x3bf97198	0.0076124184
235	0xbedbeedc	-0.42955673
236	0x3d918cd9	0.07106943
237	0x3d65228d	0.055941153
238	0xbebef968	-0.37299657
239	0x3fc7d6bc	1.5612407
240	0xbd86ef65	-0.0658863
241	0x3e14ec57	0.14543281
242	0xbc2c7b11	-0.010527388
243	0xbf1a71a1	-0.60329634
244	0x3e265bdd	0.1624598
245	0x3e3a05a4	0.18166214
246	0x3fac42d9	1.34579
247	0xbf916cf0	-1.136137
248	0xbe34e341	-0.17664815
249	0xbe0ded5e	-0.1386008
250	0x3a0c8c21	0.0005361457
251	0xbf2e1091	-0.6799403
252	0x3d497915	0.04918774
253	0x3ebee302	0.37282568
254	0xbd0de84c	-0.034645364
255	0xbfb9ef04	-1.4526067

__linear_0.bias f4 [64]
0	0xbf3d3491	-0.73908335
1	0xbcd82b2a	-0.02638777
2	0xbf3ebbaf	-0.7450513
3	0xbedc72d4	-0.43056357
4	0xbf790b83	-0.9728319
5	0xbe0b1065	-0.13580473
6	0xbf06280e	-0.5240487
7	0xbe14d448	-0.14534104
8	0xbee36ce2	-0.44419008
9	0x3ecafd49	0.39646366
10	0xbfa47750	-1.2848911
11	0xbe92c23f	-0.28663823
12	0xbf344371	-0.7041541
13	0xbf39b9e8	-0.72549295
14	0xbe64ae40	-0.22332096
15	0xbe1b5203	-0.15168004
16	0xbf4b2164	-0.79347825
17	0x3f333709	0.7000585
18	0x3eabd14b	0.33558115
19	0xbf93ba32	-1.1541197
20	0xbef1ac4d	-0.47201768
21	0xbf140425	-0.57818824
22	0xbeab5728	-0.33464932
23	0xbf97b77f	-1.1852874
24	0xbee73be2	-0.45162874
25	0xbf2d4c0e	-0.67694175
26	0xbdb8bd84	-0.09020522
27	0xbf25613f	-0.6460151
28	0xbdb62c01	-0.08895112
29	0xbed0c521	-0.40775397
30	0xbf6566c7	-0.8960995
31	0xbe9beb65	-0.3045303
32	0xbf12cc9e	-0.5734347
33	0xbe20acad	-0.1569087
34	0xbf61eac1	-0.8824883
35	0x3ebf6ceb	0.37387785
36	0xbf8ee128	-1.1162462
37	0xbebca97c	-0.36848056
38	0x3e2722cb	0.16321866
39	0xbe8318d9	-0.25604895
40	0xbf1943e3	-0.5986921
41	0xbe339251	-0.17536284
42	0xbf3ca967	-0.7369599
43	0xbeda983a	-0.42694265
44	0xbee6e8b9	-0.45099428
45	0xbe51f78f	-0.20504592
46	0xbf15de20	-0.5854206
47	0xbf49368c	-0.78598857
48	0xbef814f7	-0.48453495
49	0xbe882766	-0.2659256
50	0xbee9da7d	-0.45674506
51	0x3f54c5d9	0.8311439
52	0xbf20038d	-0.6250542
53	0xbee75b68	-0.45186925
54	0xbef72caf	-0.48276278
55	0xbeac497f	-0.33649823
56	0x3f118311	0.56840616
57	0xbd964d26	-0.07338934
58	0xbe6b7a6e	-0.22995922
59	0x3e2bac64	0.1676498
60	0xbeb2e536	-0.349405
61	0xbf373163	-0.71559733
62	0xbf5c978a	-0.8616873
63	0xbf831430	-1.0240536

__linear_1.weight f4 [64, 64]
0	0xbefb38e2	-0.49066836
1	0xbe3cd8e3	-0.1844211
2	0xbd794ffb	-0.06086729
3	0xbe79dafd	-0.24399944
4	0xba1aa72d	-0.0005899545
5	0x3d93a328	0.07208854
6	0x3e2491dc	0.16071266
7	0xbd706419	-0.05868921
8	0xbe8bd938	-0.27314162
9	0xbd2f70c1	-0.04283214
10	0xbdcc03cd	-0.099616624
11	0xbcf38dac	-0.02973064
12	0xbeab3b72	-0.3344379
13	0xbe3a13c1	-0.18171598
14	0xbef992a6	-0.48744696
15	0xbdbcf48c	-0.09226331
16	0xbe1a81be	-0.15088555
17	0xbc625e44	-0.01381642
18	0xbd4e4605	-0.050359745
19	0xbc446e58	-0.011989199
20	0x3da29b09	0.07939727
21	0xbe3472c9	-0.17621912
22	0xbe4869ed	-0.19571657
23	0xbed8b28e	-0.42323726
24	0xbe019244	-0.12653452
25	0xbe208dc8	-0.15679085
26	0xbd0d9fe6	-0.03457632
27	0xbe78dea0	-0.24303675
28	0x3c0ed366	0.0087173935
29	0xbdad54fc	-0.08463475
30	0xbe1b599b	-0.151709
31	0xbcddb752	-0.027064953
32	0xbd5ed056	-0.054397903
33	0xbedcb2d1	-0.43105176
34	0xbda1cf9a	-0.07900925
35	0xbd4cf268	-0.050035864
36	0xbedbc173	-0.42921028
37	0xbd2b9e18	-0.041898817
38	0xbd4fd2b3	-0.050738048
39	0xbd8593b4	-0.06522313
40	0xbebae1bd	-0.3650035
41	0xbe222036	-0.158326
42	0x3e0839ae	0.13303253
43	0xbed7dd89	-0.42161205
44	0xbd8f313c	-0.069918126
45	0xbbcf5019	-0.006326687
46	0xbd4376d1	-0.047720734
47	0x3daf7997	0.08568113
48	0xbdef2964	-0.116778165
49	0x3d757017	0.05992135
50	0xb9cb25ab	-0.00038747242
51	0xbb2634d8	-0.0025361087
52	0xbe1c0d1f	-0.1523938
53	0xbe8ff191	-0.28113988
54	0xbe3adf69	-0.18249287
55	0xbc92cb56	-0.017919224
56	0xbecf92bb	-0.40541634
57	0xbe5b32dc	-0.2140612
58	0xbe220419	-0.15821876
59	0x3c126be3	0.008936855
60	0xbddbf261	-0.107395895
61	0xbe5b8b6e	-0.21439907
62	0xbe64a9aa	-0.22330347
63	0xbe90a444	-0.28250325
64	0xbe1ae151	-0.15125014
65	0xbd342239	-0.04397795
66	0xbe20d480	-0.15706062
67	0xbec4c127	-0.38428614
68	0xbd193600	-0.037405014
69	0x3db5a66b	0.08869632
70	0xbeb6c3e3	-0.35696325
71	0x3b34c8cd	0.0027585507
72	0xbe6c1fc1	-0.23058988
73	0xbdc04971	-0.09389008
74	0xbcfe45b0	-0.031039089
75	0xbd9b9784	-0.07597259
76	0xbec8705a	-0.39148217
77	0xbdd8fe81	-0.10595418
78	0x3e32f802	0.1747742
79	0xbe8b9723	-0.27263746
80	0xbdd0caf5	-0.10194961
81	0xbddf668f	-0.109082334
82	0x3e7bf719	0.24605979
83	0x3dfba80c	0.12287912
84	0xbc892515	-0.016741315
85	0xbde04526	-0.10950689
86	0xbe3ca15f	-0.18420933
87	0xbd29f9cb	-0.041497987
88	0xbd4112d8	-0.04713711
89	0xbd7b3eb6	-0.061339103
90	0xbe12c5db	-0.14333288
91	0x3d210091	0.03930718
92	0xbdfa14a2	-0.12210967
93	0xbd769be8	-0.060207278
94	0xbeebf878	-0.46088004
95	0xbc921ceb	-0.017836055
96	0xbe3896aa	-0.18026224
97	0xbeb58ad0	-0.35457468
98	0xbedecac8	-0.43514085
99	0xbf1f6678	-0.6226573
100	0xbfc49e46	-1.5360801
101	0xbecd1ac6	-0.4005949
102	0x3e62378b	0.220915
103	0xbcd27d5f	-0.025694547
104	0xbdd3a669	-0.103344746
105	0xbee17a7a	-0.44038755
106	0xbea03450	-0.3128991
107	0xbe396d29	-0.18108048
108	0xbf16fdd3	-0.58981055
109	0xbf8eab35	-1.1145998
110	0xbbe30878	-0.0069285
111	0xbf728129	-0.9472833
112	0xbe1ff670	-0.15621352
113	0xbf42a6d6	-0.7603582
114	0xbe0df58a	-0.13863197
115	0xbea5bf6c	-0.32372606
116	0x3ce4f563	0.02794904
117	0xbe837681	-0.2567635
118	0xbe3cf3d2	-0.18452385
119	0xbff9797f	-1.9490203
120	0x3e022295	0.12708504
121	0x3eaf1232	0.3419357
122	0xbd977345	-0.07395033
123	0xc0770791	-3.8598368
124	0xbd69af5e	-0.05705201
125	0xbe4c89da	-0.19974461
126	0xbe2b0fd9	-0.16705264
127	0xbe0ff55b	-0.1405844
128	0xbe4621db	-0.19348852
129	0x3d2c6dbe	0.042096846
130	0xbdfe3028	-0.12411529
131	0xbde82d83	-0.11336806
132	0x3d821ded	0.06353364
133	0xbea7b2f5	-0.3275372
134	0x3aa9681f	0.0012924707
135	0xbe64fb4b	-0.22361486
136	0xbdafee8b	-0.0859042
137	0xbdd2e289	-0.102971144
138	0xbdcd42c5	-0.10022501
139	0xbe949aa4	-0.2902423
140	0x3d296aaa	0.04136149
141	0xbea75847	-0.32684538
142	0xbd523b9d	-0.051326383
143	0xbe60e1b8	-0.21961105
144	0xbe028dc0	-0.12749386
145	0x3dba70fa	0.0910358
146	0xbd08de37	-0.033415046
147	0x3d7930c4	0.060837522
148	0xbe4bc71e	-0.19900176
149	0x3c90027d	0.017579312
150	0xbe8adfc3	-0.27123842
151	0x3c94c384	0.018159635
152	0xbd0b3ddf	-0.03399455
153	0xbd93b820	-0.072128534
154	0xbdea86cb	-0.11451491
155	0xbd98202d	-0.07428012
156	0xbd1e84c9	-0.038700853
157	0x3dc26aea	0.094930485
158	0xbd4fadbf	-0.050702807
159	0xbd33773b	-0.04381488
160	0xbdaa8bda	-0.08327456
161	0xbe2bd2e6	-0.1677967
162	0x3e874699	0.2642105
163	0xbe8ea73f	-0.27861974
164	0xbcfddcf2	-0.030989144
165	0xbea6cdc8	-0.32578874
166	0xbec1ee6f	-0.37877223
167	0x3d28af30	0.041182697
168	0xbdab19bf	-0.0835452
169	0xbd4e925d	-0.05043255
170	0xbe5a8e0b	-0.21343248
171	0xbd69fa26	-0.057123326
172	0xbaf9bc68	-0.0019053342
173	0xbd8c1fa0	-0.068419695
174	0xbe605a26	-0.21909389
175	0xbe90f84d	-0.28314438
176	0xbe37d19a	-0.1795105
177	0x3dbcc0b9	0.092164464
178	0xbe6d8ff9	-0.23199452
179	0x3d22c11c	0.039734945
180	0x3d95fc68	0.07323533
181	0xbee92b7d	-0.4554099
182	0x3d0db98f	0.03460079
183	0xbe2dec75	-0.16984732
184	0xbe84eedc	-0.25963485
185	0xbe4ed52e	-0.20198509
186	0xbd1a14ef	-0.03761762
187	0xbe4ba76d	-0.19888087
188	0xbe2dd0ae	-0.16974136
189	0xbd825e78	-0.06365675
190	0xbe046d68	-0.1293236
191	0xbd525c62	-0.051357634
192	0x3d82a8c0	0.06379843
193	0xbe1cab0f	-0.15299629
194	0xbda5f546	-0.08103423
195	0xbdfe3f30	-0.12414396
196	0xbcddcaf1	-0.027074309
197	0xbd83ee0e	-0.0644189
198	0xbdbf24f6	-0.093332216
199	0xbdd4ac8c	-0.10384473
200	0xbcc5f4d1	-0.02416459
201	0x3caa37ec	0.020778619
202	0xbd5c15d2	-0.053731747
203	0xbdc4c7a1	-0.09608389
204	0xbda45016	-0.08023088
205	0xbe23af37	-0.15984808
206	0xbda783eb	-0.08179458
207	0xbdde9129	-0.10867531
208	0xbd394b38	-0.04523775
209	0xbd1a0d84	-0.037610546
210	0xbd824a6a	-0.063618496
211	0xbe135221	-0.14386798
212	0xbd127026	-0.035751484
213	0xbd7cfda2	-0.06176532
214	0xbdba6564	-0.0910137
215	0xbde39bac	-0.111136764
216	0x3d7c16ef	0.06154531
217	0xbe267274	-0.16254598
218	0x3d84f838	0.064926565
219	0xbda4376a	-0.08018382
220	0x3cc8f572	0.0245311
221	0xbdf35112	-0.11880697
222	0xbdd5eec3	-0.10445931
223	0xbe34d2d1	-0.17658545
224	0xbc6a7e6f	-0.014312371
225	0xbc8ba0cf	-0.017044453
226	0xbc33a159	-0.010963761
227	0xbe08e156	-0.13367209
228	0xbe1824ba	-0.1485776
229	0x3ccd2c3a	0.025045503
230	0xbe2662f0	-0.16248679
231	0xbd8b57dd	-0.06803868
232	0xbde92a4e	-0.11385022
233	0xbd82d7a9	-0.0638879
234	0x3d96c129	0.07361061
235	0xbd2a2d04	-0.041546836
236	0xbdd0f48a	-0.10202892
237	0xbcbc3e2a	-0.02297886
238	0xbd646513	-0.055760454
239	0x3dab409f	0.08361935
240	0xbdbbe293	-0.09174075
241	0xbd84bf0a	-0.0648175
242	0xbdfcaf4a	-0.12338121
243	0xbd3c5bbc	-0.045985922
244	0xb9cd618d	-0.00039173328
245	0xbdb371d3	-0.087619446
246	0xbd744497	-0.059635725
247	0x3c94495c	0.018101387
248	0xbdfaf22f	-0.12253224
249	0xbe0e79b3	-0.13913612
250	0xbda1da02	-0.0790291
251	0x3be38895	0.006943772
252	0xbe2cb7e5	-0.16867025
253	0x3bc857ec	0.0061139967
254	0x3cbd94a6	0.02314217
255	0x3c4f8b31	0.012667463

__linear_1.bias f4 [64]
0	0xbea315d0	-0.3185258
1	0x3edbdeab	0.4294332
2	0xbe993400	-0.29922485
3	0xbe566882	-0.20938304
4	0xbe3f8123	-0.18701605
5	0xbe87ce60	-0.2652464
6	0x3cc4cd98	0.024023816
7	0xc0112b95	-2.268285
8	0x3ec34a3a	0.38142568
9	0xbfb92cce	-1.4466798
10	0xbf98c54e	-1.1935213
11	0x3f1c1cc8	0.60981417
12	0xbe228a6a	-0.15873113
13	0xbecb5c3d	-0.3971881
14	0xbe0cb2fd	-0.13740154
15	0xbe7ef3ac	-0.24897641
16	0x3f368b10	0.7130594
17	0xbe36b346	-0.17841825
18	0x3bede187	0.007259551
19	0x3d33ec70	0.043926656
20	0x3da04773	0.07826128
21	0xbe908b85	-0.28231445
22	0x3efd1d5e	0.49436468
23	0xbea1af90	-0.31579256
24	0xbe4d4b0f	-0.20048164
25	0xbe484642	-0.19558051
26	0xbe1411ad	-0.14459868
27	0xbc9d9555	-0.019236246
28	0xbd407e72	-0.046995588
29	0xbdd5bc9e	-0.104363665
30	0xbe3651c8	-0.17804635
31	0xbe849170	-0.2589221
32	0xbe34f014	-0.17669708
33	0xbf418970	-0.7560034
34	0xbe0e31f3	-0.13886242
35	0xbe965ded	-0.29368535
36	0xbe6e8a64	-0.2329498
37	0x3e176f89	0.14788641
38	0xbf85e87b	-1.0461572
39	0xbe4d4c25	-0.20048578
40	0xbdaeaef2	-0.08529462
41	0xbe48d36d	-0.19611903
42	0x3e59131a	0.21198693
43	0x3dd8fe34	0.105953604
44	0x3fa66dbf	1.3002242
45	0x3f607f08	0.87693834
46	0xbea9674f	-0.3308663
47	0xbf869194	-1.0513177
48	0xbe36e06f	-0.17859052
49	0xbd77e791	-0.060523573
50	0xbfd266c4	-1.6437612
51	0xbd8a8fbf	-0.06765699
52	0x3e5dca43	0.21659188
53	0xbf1f0243	-0.62112826
54	0xbec2c4ca	-0.38040763
55	0xbe3ca0e3	-0.18420748
56	0xbe78ac93	-0.24284582
57	0xbe17c259	-0.14820231
58	0x3f639830	0.88904095
59	0xbf786588	-0.97029924
60	0xbf0167e3	-0.50549144
61	0xbea478ad	-0.32123318
62	0xbf1f3f3e	-0.62205875
63	0x3fa02a63	1.2512935

__linear_2.weight f4 [1, 64]
0	0x39202cd3	0.00015275487
1	0xbd4129df	-0.047159072
2	0x3c23046d	0.009949786
3	0xbcc67933	-0.024227714
4	0xbc17590a	-0.009237537
5	0x3ca05c3f	0.019575236
6	0x3ce69637	0.0281478
7	0x3d73bc1c	0.059505567
8	0xbd62be97	-0.055357542
9	0x3cfa666e	0.03056642
10	0xbc508433	-0.012726831
11	0x3ce64855	0.028110662
12	0xbbf424b6	-0.0074506653
13	0xbbd320a6	-0.006443101
14	0xbc152569	-0.009103158
15	0x3cc6593d	0.024212474
16	0x3ca4a506	0.02009822
17	0x3c151ae8	0.009100653
18	0x3d0778de	0.033074252
19	0x3d93ca43	0.07216313
20	0x3d9c9503	0.07645609
21	0xbbdfea24	-0.0068333317
22	0xbd0e4ded	-0.034742285
23	0xbaf96c26	-0.0019029423
24	0x3ca72408	0.020402923
25	0xbaa6b39e	-0.0012718325
26	0x3d4dc4fa	0.05023668
27	0xbb965593	-0.004587838
28	0x3dd49379	0.10379691
29	0x3d74939a	0.059711076
30	0x3c95c013	0.018280065
31	0x3c5a3071	0.013317213
32	0xbc8639ed	-0.016385043
33	0xbd31085e	-0.04322087
34	0x3c96730e	0.01836541
35	0xbc8b815e	-0.01702946
36	0x3c2c3f89	0.010513195
37	0xbc9d1365	-0.019174287
38	0xbcea617c	-0.028610937
39	0x3cbe4a50	0.023228794
40	0x3cec14b6	0.02881847
41	0x3cf7937a	0.03022169
42	0xbca227cf	-0.019794373
43	0xbdcaecc5	-0.099084415
44	0x3c614643	0.013749662
45	0x3cb8a81a	0.022541095
46	0x3cefc7c6	0.029270064
47	0x3d5e03c8	0.054202825
48	0xbb351f2c	-0.0027636988
49	0x3b9c71b9	0.004774299
50	0xbc9ce6e6	-0.01915307
51	0xbcbe01f6	-0.023194294
52	0xbd212da0	-0.039350152
53	0x3da71a7b	0.081593476
54	0x3da1b2f5	0.078954615
55	0xbd40d523	-0.047078263
56	0x3c250c89	0.010073789
57	0x3b2989dd	0.0025869526
58	0x3c3cd73e	0.011525927
59	0xbd8e8456	-0.06958835
60	0xbd5935fb	-0.053029995
61	0x3d025f8f	0.031829413
62	0x3d72802c	0.059204265
63	0x3d3453a3	0.044025075
