agent_1_actor.pt (torch_old, 24637 bytes, 6 tensors)

__linear_0.weight f4 [64, 24]
00000000: 086a adbe 9236 21bf b075 ea3d 20f7 0dbf
00000010: e948 aa3d 071c 20bf d017 31be 34c9 e8be
00000020: 274a 133e 5bf1 59bf 9e9c a5bd 6320 86bf
00000030: e390 383e 55fc 46bf 7fbf 65be e40e 29bf
00000040: d6b1 c8bd 18d7 6ebf e2e0 5cbe a7db fbbe
00000050: 8d51 3bbe 44e7 03bf 358b b8bd ffe9 f2be
00000060: 0330 363f d847 a63e b6b0 12be c58d cbbe
00000070: 2027 403e db26 7d3d 9e54 a33d 675f 04bf
00000080: f1b0 133f 6f66 af3e 4e86 95be 8d52 b33e
00000090: 5f88 c53e 0cba 863e d267 113d e950 a63e
000000a0: a6f9 0c3f 3b57 a03e 2dcf 9bbe bbb4 b03e
000000b0: c4e8 3d3f c00c 093e 1bee d7be dbe4 973e
000000c0: b8de 023f 4c86 40bf b88f ac3e 27a8 ee3d
000000d0: 1868 c7be 233e 283f c5e6 0b3f 885b a73c
000000e0: e70e cf3e 49fe 48bf b19f e63d 2833 593e
000000f0: 1037 c6be 5dbf aa3f b7ec 57bd f707 813e
00000100: 01ba ad3e 700b 14bf 8081 413e 8c04 7f3e
00000110: 748f 40bf 7d0f dc3f 4c02 4cbe 92ac 0d3e
00000120: d3cb 2d3f 9b87 cbbd 5965 f7bc 406a 303f
00000130: fb41 913e 07be 2abf 37e6 39be 4e30 383f
00000140: b47a 0b3f 3ebb 663d 66b5 bf3d 7cd4 923e
00000150: f85f bc3d ee0c 6dbf dfc7 1ebe 5757 1f3f
00000160: 5b24 5c3f 635e b13e 59e6 1e3c d032 873e
00000170: 8ce3 ca3d 21eb 1abf 4da8 ab3c 6efb fe3e
00000180: 63d4 a93c cd71 3abf b218 e03d 1f19 9dbf
00000190: 86fd 88be bc85 e63e 908c 083e ec27 85bf
000001a0: ec91 123e f0b4 74bf a403 633e c38f 62bf
000001b0: de06 8bbe 83cb 6f3f f2bd 093e 130c 5abf
000001c0: 3ff7 883e da87 5dbf 8236 1d3e da62 cf3e
000001d0: 9f2b 34bd d0d7 c63f ff46 863d 72f9 b83e
000001e0: ac5b d33e ae9a 33bf 728f b13d d31a b1be
000001f0: 8de2 0740 7071 003f dcdc 323c 4964 bbbe
00000200: b4a7 2cbe d951 1ebf 2725 0fbd 0388 2c3e
00000210: 0b42 3340 845a 033f 6589 4cbe 0203 113e
00000220: 23df 8dbe 46de 42bf 612f 38be 2945 983e
00000230: 53e5 2b40 2d75 fc3e 1fa5 c7be fb1f 693d
00000240: 7a9d fd3d 2f92 b23e d3d8 cb3d 63f1 acbf
00000250: 203d e7bd f975 28be 44e9 223e bf99 8dbf
00000260: c80c 81bd 3204 a43d 5d81 92be 9113 6abf
00000270: 8826 0f3e e349 59be bf3d ecbd 0331 37bf
00000280: 58eb 33be 59f6 e43e ec23 4dbe dcb2 c13e
00000290: 1501 293e 5726 47bf d9a8 d03d 0618 123f
000002a0: 8843 9d3d 49db ed3e 39bb 6f3e 0737 7a3d
000002b0: 14c3 7a3f 7f04 cc3e 9277 9a3c be5f 273d
000002c0: 6a04 5b3e dc04 083f da42 073e 0959 cb3e
000002d0: 7dfe c33f 6f80 673e 6bff 9b3c 79cd b63e
000002e0: 5b46 3b3d 4349 f43e a25d da3d cc84 dc3e
000002f0: 8d81 ef3f 204b 353f 9ca2 5fbe d733 a43e
00000300: 5855 aebc c8bd c2be 7041 9fbd 5289 aabd
00000310: b7cd 1340 0a1b 183e ab0d 96be bed1 c2be
00000320: 9f1d 19be 40f1 22bf 9547 43be 4c71 acbd
00000330: d164 2440 9e05 0d3e 8ed8 a6be 3a4d 1dbd
00000340: e478 edbe 50ec 45bf 60e7 b6bd 025b 0a3c
00000350: bdf8 1b40 0e9a ac3e f554 89be 2c32 e9bd
00000360: eceb fd3e e5c3 22bf 3040 d7bd 9976 883e
00000370: 966f 2d3f 270a a2be 7af1 19be aeeb db3d
00000380: 5a17 7b3e a7c6 45bf f35e 2ebf 28df 61bc
00000390: 0fa2 033f 0a46 d8be e592 0abf 26b0 ab3e
000003a0: d349 963e f13f 21bf 092d 9abd c5f5 28be
000003b0: 2862 063f 7e4e 7cbe 239f 20bd e8fe dabd
000003c0: f5c8 293f d936 41be 454c 89b9 db36 173f
000003d0: ae14 823e c742 69bf 3432 70bd eb96 103f
000003e0: 5a54 4c3f 4be6 f23e 0204 893d ae22 b43e
000003f0: 3bf0 bf3e 5ec7 cabf 109e 8ebb efc5 a23e
-0.33869958 -0.6297389 0.11448228 -0.5545521 0.08314688 -0.62542766 -0.1729424 -0.45466006
0.14383756 -0.85133904 -0.08086513 -1.0478634 0.1802402 -0.7772878 -0.22436331 -0.66038346
-0.097995445 -0.93296957 -0.21570161 -0.4919102 -0.18292828 -0.5152476 -0.09010927 -0.4744415
0.7116701 0.32476687 -0.14325222 -0.397566 0.18764925 0.061804634 0.07975124 -0.5170807
0.57691866 0.34257838 -0.2920403 0.3502392 0.38580605 0.26313818 0.0354994 0.32483605
0.55068433 0.31316552 -0.304315 0.34512886 0.741833 0.1338377 -0.42173848 0.2966679
0.5112109 -0.7520492 0.337034 0.11653166 -0.38946605 0.65719813 0.54649 0.020429388
0.40441057 -0.7851301 0.112609275 0.21210921 -0.38713884 1.333965 -0.052715983 0.2520139
0.33930972 -0.5782995 0.18897057 0.24904078 -0.7521889 1.7192227 -0.19922751 0.13835362
0.67889136 -0.09937974 -0.030199694 0.68912125 0.28370652 -0.6669621 -0.18154226 0.7194871
0.54484105 0.05633091 0.09360771 0.28677738 0.09197992 -0.92597854 -0.15505932 0.62242645
0.85992974 0.34642324 0.009698474 0.26405954 0.09906682 -0.6051503 0.020954276 0.498012
0.020731157 -0.72829896 0.1094221 -1.2273291 -0.26755923 0.45023906 0.1333487 -1.0402808
0.14313477 -0.9558859 0.22169358 -0.8850061 -0.27153677 0.9366991 0.13451365 -0.85174674
0.26751134 -0.8653542 0.15352824 0.40505105 -0.043986913 1.5534611 0.0655651 0.36127812
0.41280878 -0.701579 0.08669938 -0.34590778 2.1232026 0.5017309 0.010916915 -0.3659995
-0.16860849 -0.6184364 -0.03494754 0.1684876 2.800906 0.5130999 -0.19974287 0.14161304
-0.27709302 -0.7612041 -0.17986824 0.29740265 2.6858718 0.49308148 -0.38993165 0.056915265
0.12383552 0.34877154 0.09953465 -1.3511165 -0.112909555 -0.16451253 0.15909296 -1.1062545
-0.06301266 0.08008613 -0.2861432 -0.91436106 0.13979542 -0.21219592 -0.11535215 -0.7155916
-0.17570245 0.44719198 -0.20033234 0.3783177 0.16504319 -0.77792877 0.10188455 0.57067907
0.07678896 0.46456364 0.23411264 0.061087634 0.97953916 0.3984718 0.018855844 0.04086279
0.21388403 0.53132415 0.13209096 0.39716366 1.5312039 0.22607587 0.019042691 0.35703638
0.045721393 0.47712144 0.1066239 0.43070066 1.8711411 0.70817757 -0.21839374 0.320708
-0.02128093 -0.38035417 -0.07776153 -0.08326973 2.3094308 0.14854065 -0.29307303 -0.38050646
-0.14952706 -0.6364937 -0.19070275 -0.08420047 2.5686533 0.13771674 -0.32587093 -0.038403727
-0.46381295 -0.7731371 -0.0893085 0.0084445495 2.4370568 0.33711284 -0.2682263 -0.11386523
0.49594057 -0.6358016 -0.1051029 0.26652983 0.6774839 -0.3164837 -0.15033522 0.10738312
0.24520627 -0.77256244 -0.6811363 -0.013786115 0.51419157 -0.42240936 -0.54130393 0.33532828
0.29353198 -0.6298819 -0.07528121 -0.16500004 0.52493525 -0.24639317 -0.039214265 -0.10693151
0.6632226 -0.18868579 -0.00026187501 0.5906808 0.25406402 -0.9111752 -0.058641627 0.5648028
0.7981621 0.47441325 0.066902176 0.35182709 0.3748797 -1.5842092 -0.0043523386 0.31791636

__linear_0.bias f4 [64]
00000000: f2a4 f6be 6c00 22bf cfe1 40be 083c 3bbf
00000010: 0ecb adbc 6157 d33e bb1c 0cbe fddf 8e3d
00000020: 6131 4c3e e6db 4dbd 2856 c6be 0f50 99be
00000030: aa3b 3ebe 51e3 4c3e f533 2c3f f77b 49bc
00000040: c198 08be c30f 0abe de85 b4be 1b62 3cbd
00000050: 32fd d6be d1f3 e1be 629d 663d 79be 033d
00000060: 025e ffbc d1b0 85bc 5fae 023f 4f93 413f
00000070: 637c a2be 9a9e e73d 338a f83d e5bd 1ebf
00000080: 0f5c 4cbe 0b86 f8be 4eff 92bd af10 15be
00000090: ba07 e13c cbc5 4abe 2179 b43c 452a 863e
000000a0: 780f 1a3e e8eb 69be a80e 2f3e e30b cdbe
000000b0: 5fb9 89be 2c46 ab3e fe11 b3be c6e7 80be
000000c0: a882 96bd f909 803e 7b89 6a3e 4485 b33e
000000d0: 001f 96be eb5d 6dbe db5a 7ebe f8d1 67be
000000e0: 2678 ddbb 3277 983e 594e 6e3e 94f5 273e
000000f0: 872e 8dbd 62ea d13d a8f7 02bf a0a8 11bf
-0.48172718 -0.63281894 -0.18836139 -0.73138475 -0.021214988 0.41277602 -0.13682835 0.06976316
0.19940712 -0.05025854 -0.38737607 -0.29943892 -0.18577448 0.2000859 0.6726678 -0.012297622
-0.13339521 -0.13482575 -0.35258383 -0.045992 -0.41990048 -0.4413133 0.056302436 0.03216407
-0.031172756 -0.016319664 0.5104732 0.756154 -0.31735525 0.11309548 0.121357344 -0.62008506
-0.19956993 -0.48539767 -0.07177602 -0.14557146 0.027469505 -0.19802015 0.022030415 0.26204124
0.15044963 -0.22843897 0.17095435 -0.4004813 -0.2689924 0.33451974 -0.34974664 -0.2517683
-0.073491395 0.2500761 0.22904007 0.3506261 -0.29320526 -0.23180358 -0.24839346 -0.2263869
-0.0067587076 0.2977844 0.23272075 0.16402274 -0.0689364 0.10249783 -0.51159143 -0.56897926

__linear_1.weight f4 [64, 64]
00000000: 675a afbe 4659 263f a5c9 1cbf 41d2 133e
00000010: 02ee 103e 2451 933e e3ed 853d f14f 3e3f
00000020: c178 9e3e 2805 acbe 3894 2b3e d366 14bf
00000030: af53 7f3e 88c2 12bf caed 883e fa7c 2ebe
00000040: 87f9 943d ebef 773f bc5e ad3e 8e23 163f
00000050: 8a97 f8bd aebd 7a3e 2197 643f debb 613c
00000060: 7c91 b53e db0e 31be 0a6d eb3d e9f7 603e
00000070: dbec cabe 93d8 033f 9551 78bf c7c7 71bf
00000080: 435a 36be cb71 4b3e 8a24 c7be e67d e63d
00000090: 1a4e 333e 847c 4f3f cc51 7fbe 7445 323f
000000a0: ac22 2f3d aa14 a4be 297f aa3e f131 2f3d
000000b0: d215 2ebe 0e7b c5bd a9e7 29be 2c20 f9be
000000c0: df38 30be 4c6c 23bf 5f32 543e 68ce dc3e
000000d0: 32a7 d7be 6959 b83f e21f 11bd 3f54 be3e
000000e0: 27d0 533f 53c8 893e d5f3 90bd 4b87 113f
000000f0: e829 9dbe e041 e8be 3b8a 14be 897d 883e
00000100: 70df 2c3e e029 0c3e 9a80 69be 0249 29be
00000110: 8250 c0be 5527 a5be 8d4c 9f3d 4638 45bf
00000120: c040 27bf 8bad 253e 9e13 ea3e 722b 2ebf
00000130: 0622 4e3d 63ab 7cbf a8bc 523f 7fdc 5e3e
00000140: 1ee9 893e 6fd8 21bf b724 83be 8f7a d4be
00000150: f2d7 4ebe ec96 c5be 4561 e5be 1a3f f13e
00000160: 1f2c ffbe 7646 85bf 1b3e 123f 4c80 d9bd
00000170: 443b 943e 58f9 28bf a6ff 9cbe c28a c33e
00000180: b5e5 53be 6a7b 343e e4ce b63e 7112 6dbd
00000190: ec31 8f3e f58a efbc cb6b 0f3f 0006 1fbf
000001a0: 8853 573f e87f 3a3d d04b d3be 0228 44bc
000001b0: 91d5 463e 4225 f33e 3764 f5be 7f63 3bbf
000001c0: 79f6 a3bc 25a2 0d3e 810b 143f 6dc3 453f
000001d0: 03f8 99bf b2db f0bd 57a8 803e 8d23 b53e
000001e0: 0d10 f5be 3fee d23e e6b4 3a3f 4c73 f1be
000001f0: 1653 8a3d db9c 313e b6cf 583e d345 96bc
00000200: 6a08 94bf 00fa f33e fa06 9dbb c728 0c3d
00000210: 123b 023f 5357 9a3f 51f1 e13e 4c9a ae3e
00000220: 6af1 933f b91f 2bbf 4337 833d e99b 4dbc
00000230: a331 c23e e6e8 25bd f776 32be ae48 3b3e
00000240: 35bb a5bd ac03 a63e 596e ad3d c303 283e
00000250: 14ae f9be d23f a6be 6374 12bf e82d fcbe
00000260: 7e3d 1c3f 0be9 7dbd d451 d6bf f88f da3e
00000270: 5e41 163e 0525 ac3e cb2f 963d 102f 113f
00000280: 1685 d3be 37ca 9f3e 6553 a7bf 6dad dc3e
00000290: 48fe 24bf 6b93 173f 2322 61be 4e74 46be
000002a0: 905f 98be baf9 9bbe c1a2 9fbd 8839 c2bd
000002b0: 33e5 933e 01cc 8a3e 517a e83e 73ff 50be
000002c0: ef31 393d aaf1 373d 70d1 063f a3cb 373e
000002d0: 9732 a23d 2cc4 cebd 78b7 f2bb 1364 9f3d
000002e0: 34fd d23d 9ff3 5abf e879 50bf 2617 1f3f
000002f0: 6b4e a23e d38a e7bd 2f06 c13d d548 38bf
00000300: e70d 813e c59d e1be 94a8 debd a9ed 07bf
00000310: 49c2 64be aedf 7abe e5a8 42be 7b2a 7cbf
00000320: 6623 f3be da38 96be 4c70 323e 7c45 95be
00000330: fa25 d03e d8d8 bcbe d896 2a3f 778e eebe
00000340: da83 de3d 0f96 fa3c d926 823e 63ab 19bf
00000350: 19f3 923c 4aad e03d 4e81 21be 80c1 2c3f
00000360: 90ab 82bd 8773 91be bebe 1f3f 6a6e df3e
00000370: 72f7 b63e 6e68 9cbe 64db a6be 72d1 0cbf
00000380: 3277 503e d618 6bbe f629 f73e 63cb b7be
00000390: 705d 3c3e a5f2 343d 985e 2fbe 613b adbe
000003a0: f3c4 473f 33dc bf3c 4187 9ebe 287b 93bd
000003b0: 324c 583f 5989 ad3e 0fe9 e5be 8888 abbc
000003c0: 6cea cdbd 509d cabe 8c75 ad3e e389 f93e
000003d0: 1ab8 e6be cf10 71bd 6854 13be 618d 9e3c
000003e0: e13c 18be 5dcc d03e a6e5 633f dd00 4cbe
000003f0: a328 f03e 1d5e 963d 6025 61bd ad6c 2fbe
-0.3424866 0.6497997 -0.61245185 0.14435674 0.14153293 0.28772843 0.06539514 0.7434073
0.30951503 -0.33597684 0.1675576 -0.579694 0.24934267 -0.5732808 0.2674392 -0.17039862
0.07274156 0.9685046 0.3386134 0.58648 -0.12138279 0.2448642 0.89293104 0.013777701
0.35462558 -0.17290823 0.11495407 0.2196957 -0.3963383 0.5150234 -0.96999484 -0.9444546
-0.1780787 0.19867627 -0.38895065 0.11254482 0.17510262 0.8104937 -0.24933547 0.6963723
0.042757675 -0.32047015 0.3330014 0.042772237 -0.17000511 -0.096426114 -0.16592278 -0.48657358
-0.17209195 -0.6383712 0.2072234 0.43126225 -0.42119747 1.4402286 -0.035430796 0.3717365
0.8273949 0.26910648 -0.07077757 0.56847066 -0.30696034 -0.4536276 -0.14505856 0.26658276
0.1688211 0.13687849 -0.22802964 -0.16531757 -0.37561423 -0.3225657 0.07778273 -0.7703899
-0.65333176 0.16179483 0.45718092 -0.6803504 0.050325416 -0.98699015 0.82319117 0.217638
0.26935667 -0.63220876 -0.2561395 -0.41499755 -0.20199564 -0.38591707 -0.44800773 0.47118455
-0.4983835 -1.0412128 0.57126015 -0.10620174 0.28951466 -0.6600547 -0.30663794 0.381918
-0.20693095 0.17625204 0.3570472 -0.057878915 0.27967775 -0.029241065 0.56023854 -0.6211853
0.84111834 0.045532137 -0.41268778 -0.011972429 0.19417407 0.47489363 -0.4792802 -0.73198694
-0.020014988 0.13831384 0.57830054 0.7725132 -1.2028812 -0.117606536 0.25128433 0.35378686
-0.47863808 0.41197392 0.7293228 -0.47158277 0.06754129 0.17344992 0.21172985 -0.018343842
-1.1565068 0.47651672 -0.0047920914 0.034218576 0.50871384 1.2057899 0.44129422 0.34102094
1.1558049 -0.6684528 0.06407025 -0.012549379 0.37928495 -0.040505312 -0.17428194 0.18289444
-0.080923475 0.32424676 0.08468313 0.16407685 -0.48765624 -0.32470566 -0.5720884 -0.49253774
0.6103133 -0.061989825 -1.6743722 0.42687964 0.14673373 0.33621994 0.073333345 0.56712437
-0.41312474 0.31208965 -1.3072325 0.43101063 -0.644505 0.59209317 -0.21985678 -0.19380304
-0.29760408 -0.30463964 -0.07794715 -0.094836295 0.28885803 0.27108768 0.4540582 -0.20409946
0.045213636 0.044908203 0.52663326 0.17948775 0.079198055 -0.100960106 -0.007407125 0.077827595
0.10302201 -0.85527986 -0.81436014 0.62144697 0.31700453 -0.113057755 0.094250076 -0.7198613
0.2520592 -0.4406568 -0.108719975 -0.53097016 -0.22339739 -0.2449939 -0.1900974 -0.9850232
-0.47487944 -0.2934025 0.1742565 -0.29154575 0.40653974 -0.3688419 0.6663642 -0.46593067
0.108649924 0.030589132 0.25420263 -0.6002714 0.017938184 0.10970552 -0.15771982 0.6748276
-0.06380379 -0.28408453 0.62400424 0.43638927 0.3573566 -0.30548424 -0.32589257 -0.5500709
0.2035797 -0.22958693 0.482742 -0.3589736 0.18395019 0.044176716 -0.17125928 -0.33834365
0.78034896 0.023420429 -0.30962566 -0.072012246 0.84491265 0.3389385 -0.44904372 -0.020939127
-0.10054478 -0.39573145 0.33878744 0.48738012 -0.45062333 -0.05885392 -0.14387667 0.019354524
-0.14866973 0.40780917 0.8902229 -0.19922204 0.46906003 0.073421694 -0.054967284 -0.171313

__linear_1.bias f4 [64]
00000000: c536 943d c759 8c3e 9589 ebbe c5c1 323f
00000010: b14e a2be ec03 453d 3297 5ebe 8e82 96bd
00000020: 875d c8be 9810 27be 0655 ba3d 3771 c7bd
00000030: 41aa b8be 7778 f5be e345 ccbe 4b94 70be
00000040: d460 d0bc 349f eb3d 851d d23e 742c aebe
00000050: 754d 14be fa5b a73e ab9c 003e 99d6 d9be
00000060: 2df6 19be c406 d8bd 9396 56be 6cb8 853c
00000070: f9a6 833e 9ba6 e4be f6ce e1be 587c c0be
00000080: 4edd 3e3d bcb2 683e 882b bdbe 550a b23e
00000090: 8cc7 95bd df4f 8b3e 9a2c cbbd b943 40be
000000a0: d2cf a6be a24b c6bd 4f3d d0bd d0f7 f7be
000000b0: 5469 7d3d 4e49 d83e a77c b1bb 2633 653e
000000c0: 138d 3bbe 4961 a4be 55ee 6fbe bab0 8abd
000000d0: 2dd4 afbe 0a41 4bbe 4053 85be a70b f5bd
000000e0: 1e56 c3bd 0527 32be ac6a f53c c691 b7bd
000000f0: addf eebe d414 1fbd 5f73 a6be a0f7 cbbc
0.07237009 0.27412245 -0.46003404 0.6982692 -0.31700662 0.048099443 -0.21737364 -0.0734912
-0.39133856 -0.16314924 0.09098248 -0.09738391 -0.36067393 -0.4794347 -0.3989707 -0.2349407
-0.025436796 0.11504975 0.41038147 -0.3401829 -0.14482673 0.3268736 0.12559764 -0.42546538
-0.15035315 -0.105481654 -0.20955877 0.01632329 0.25713328 -0.4465836 -0.4410321 -0.37594867
0.04659777 0.22724432 -0.36947274 0.34773508 -0.07313451 0.27209374 -0.099206164 -0.18775834
-0.3258043 -0.096823946 -0.10167944 -0.48431253 0.061868027 0.42243427 -0.005416471 0.22382793
-0.18315534 -0.32105473 -0.2343076 -0.06771989 -0.34341565 -0.19849029 -0.26040077 -0.11965113
-0.0953791 -0.17397697 0.029958092 -0.08963351 -0.46655026 -0.038838223 -0.32509896 -0.02489835

__linear_2.weight f4 [2, 64]
00000000: 41f6 313f 8e32 243f c2fe 123e 3416 923e
00000010: cbd3 17be 6987 2cbe 24e8 16be 817a 03bf
00000020: 3d3b c43e 58fd a7bd f3ff 443f 4d56 323e
00000030: 6e17 f4be 1092 e5be b3d5 1fbd 41ed 11bf
00000040: ea01 683c 315c 1cbf cb7b 123f 6817 1ebe
00000050: 35e7 843f 8b69 4e3f 0e6d f03e 967d 35bf
00000060: 76c2 923e 1b2f 39be 349d ebbe 9711 93bd
00000070: 72ba f43e 8e10 a4be 0bfa 4b3c ba4a e5be
00000080: 1fbe 4ebf 0c94 e43e 9adc 103d 3cec 503f
00000090: dbb5 9b3e 38ed b03e 7eec 15bf e413 f83e
000000a0: a2bb 003f ff49 95be fc91 48bf 9302 cabd
000000b0: e8cf 1dbe af79 473f 7551 853e 1456 063f
000000c0: 04dc 3cbb f276 953d b87a 1ebe aba0 0d3f
000000d0: f336 30be 7fd4 dfbd 6562 53be f821 f53e
000000e0: fe5e 20be ffc6 a43e 3529 ae3d aa72 35bf
000000f0: 7c9e ef3d e164 3ebf 0237 5c3e 87e5 dbbd
00000100: 9039 4e3c da8c 33bf f8d6 4bbf c4f2 253f
00000110: 5e36 c5be 25e1 3dbf a984 ebbe 1cb4 763e
00000120: 257d 4a3c 5647 cfbf 3924 da3e 4980 0fbc
00000130: e803 ea3e 7870 0b3f 6928 b6bf a4f6 ddbd
00000140: 3d61 77bf 7fbb 523e a442 16bf 2e1b 9d3f
00000150: 9707 b3be 0aa4 fabd 4723 99be d390 563f
00000160: 0a81 333d 0f4e f23e f0af 76be 4ee5 d93d
00000170: 84fd 5abf 3e90 163f 5851 0cbf 6730 1b3f
00000180: 8d53 a03e 25ae bd3e 961e 97bf a73f e03e
00000190: 6324 a03e 0a98 f8be 4b4b fdbd 1af4 08bd
000001a0: ecde 93bc 0694 2abe 3fc5 54be 2c96 973c
000001b0: bf38 75bf f806 26bf 22b7 e23e 32b9 37bd
000001c0: 5902 133d 5f7f 833e 2e94 2b3c d13c 5cbe
000001d0: 7eba b2bf cd73 ecbb 1322 68bd 6841 ccbe
000001e0: 2260 0abe 4081 8cbe 4532 8a3d a97e c2ba
000001f0: b2c1 663e 83f6 d7bd 2dcc d63e ca6e ee3c
0.6951638 0.6413964 0.14354995 0.28532565 -0.14826886 -0.1684853 -0.14736992 -0.513588
0.38326445 -0.08202618 0.7695305 0.17415734 -0.47674125 -0.44838 -0.03902216 -0.57002646
0.014160613 -0.6107817 0.57220143 -0.15438616 1.0383059 0.80629796 0.46958202 -0.70894754
0.28663987 -0.18084376 -0.46018374 -0.07181089 0.47798496 -0.3204388 0.012449752 -0.44783574
-0.8075885 0.446442 0.035366632 0.81610465 0.30412182 0.34555984 -0.58563983 0.48452675
0.50286305 -0.29158017 -0.78347754 -0.09863772 -0.15411341 0.7792005 0.2603871 0.52475095
-0.0028817663 0.07298078 -0.15476501 0.55323285 -0.17208461 -0.10929202 -0.20643003 0.4787748
-0.15661237 0.32183072 0.08503953 -0.7087809 0.1170015 -0.7437268 0.21505359 -0.10737138
0.012586966 -0.701368 -0.7962489 0.64823556 -0.3851804 -0.7417167 -0.4599965 0.24092144
0.012358938 -1.6193645 0.4260576 -0.008758613 0.45706105 0.5446849 -1.4231082 -0.108380586
-0.9663275 0.20579337 -0.58695436 1.227392 -0.34966728 -0.12238319 -0.29909727 0.83814734
0.043824233 0.4732518 -0.24090552 0.106394395 -0.85543084 0.58813846 -0.5481162 0.6062073
0.31313744 0.37046924 -1.1806209 0.43798563 0.3127776 -0.48553497 -0.123678766 -0.03343592
-0.018050633 -0.16658029 -0.20778368 0.018504225 -0.9578971 -0.64854383 0.44280344 -0.04485435
0.03589091 0.25683114 0.0104723405 -0.21507575 -1.3963163 -0.007215953 -0.05667312 -0.3989365
-0.13513234 -0.2744236 0.067478694 -0.0014838773 0.22534826 -0.10545065 0.4195265 0.029105563

__linear_2.bias f4 [2]
00000000: e19a 0c3d f141 b0bd
0.03432739 -0.08606327
