agent_1_critic.pt (torch_old, 48441 bytes, 7 tensors)

__linear_0.weight f4 [64, 52]
0.05657757 -0.60240495 -0.009270172 0.011044309 -1.6943258 -0.01035508 0.005426566 0.20310985
0.091125056 -0.8371647 -0.00016762826 0.029148927 -2.0194879 0.14987546 -0.00032939337 0.048374865
-0.3599925 -0.834923 0.041965626 -0.015702497 -0.30052918 0.9373853 -0.058036074 -0.11211313
-0.28255656 1.7674774 -0.013187586 0.005967836 1.6135925 0.19246154 -0.06319283 0.19935147
-0.37277582 1.2005726 -0.029039692 0.058152456 1.9966373 0.26405063 0.0321151 -0.016596446
-0.27959627 1.1683286 0.052193873 -0.44252008 0.26615727 0.9632815 -0.042029012 -0.37363893
-1.2632765 -0.10673187 0.42108503 -0.80845344 0.12212105 -0.102795094 0.026020138 0.020151954
-1.3860055 1.5325092 -0.027996486 -0.0014016737 -0.07671004 0.088175565 0.029215321 0.00563326
-0.15516658 0.59689367 0.0075042266 -0.039650995 -0.3282109 0.0074513834 0.003938305 -0.14301713
1.7106045 -1.615624 0.04908341 -0.011505747 0.086823456 -0.10411663 -0.048134707 -0.050171915
1.2670122 1.3871726 0.07814299 0.11130609 -0.042068243 -0.42463538 0.066856064 -0.011143706
0.1345125 0.6422119 -0.013575382 -0.011158779 -0.1532007 -0.37705374 -0.101737246 0.0913345
-1.5309829 -1.6398013 0.114839375 -0.091145836 -0.22309364 0.11609793 -0.05655311 0.042249616
0.043463513 0.032214973 0.004448058 -0.0016284827 0.41072357 0.44594654 -0.02088497 -0.08034369
0.19630207 0.3002276 -0.11819665 -0.013437799 -0.02614863 -0.4621355 0.09526708 -0.08612445
0.015943527 -0.19674902 0.060117166 0.05499302 -0.3681327 -2.6084173 -0.109956525 -0.11288481
-0.4373185 2.1805687 -0.08364751 0.05433712 -0.2037918 0.37470403 0.09821607 -0.041496985
-0.5307436 2.072602 0.017141232 0.05605995 0.15227175 -0.60917866 -0.008296092 0.15451445
-0.8149692 2.1346128 -0.0032463404 0.8379291 0.28109723 -2.4193628 -0.021547528 0.7654853
-0.7097336 -0.44030285 -3.3738394 0.26199841 0.2671748 0.8257449 -0.10620136 -0.45503166
-0.42306536 -0.675428 -0.0147725 -0.5132641 0.44107953 0.8229685 -0.16377054 -0.24536902
-0.57254577 -1.2826236 -0.1956753 -0.23065868 0.61156756 0.52329385 -0.2609079 0.39618614
-0.91031516 -0.43562472 -0.45662034 0.3527334 0.10978994 0.67871493 -0.12866697 -0.30175316
0.47323602 -0.6320196 -0.025054527 -0.2435182 0.40163198 0.6846986 0.030641673 -0.0024681508
0.61132383 -1.1176895 -0.12128873 -0.0012977249 0.70103353 0.66212296 -0.0417141 -0.17985798
0.9106188 -0.23424754 0.027545929 -0.110283986 -1.9077073 0.2579392 -0.9614278 1.002548
-0.189295 0.10830796 -0.017204398 0.14613074 -0.12067406 0.22368798 0.011238632 0.12009997
0.2818567 0.15606913 -0.055681147 -0.05410701 -0.007819809 -0.072051376 -0.022630526 -0.04380704
0.3204525 0.052817155 -0.036860835 -0.2733159 0.17326069 -0.64291155 -0.04332708 -0.27341524
0.3036376 -1.0788218 0.12734085 0.09333546 0.103617944 0.19838578 -0.08802737 0.11535995
0.5205932 -1.406427 0.06673246 -0.5134473 0.21872844 -0.10337049 0.064411886 -0.5782246
0.57568055 -0.80610585 -0.06883897 2.02757 -0.19439 -0.61895204 -0.005461791 2.009772
00000000: e2bd 673d 3637 1abf ebe1 17bc 30f3 343c
00000010: abdf d8bf 5aa8 29bc 56d1 b13b 07fc 4f3e
00000020: c69f ba3d 6d50 56bf 5ec5 2fb9 bbc9 ee3c
00000030: 4a3f 01c0 f478 193e 6eb2 acb9 b924 463d
00000040: f050 b8be 84bd 55bf 26e4 2b3d 86a2 80bc
00000050: f6de 99be 7cf8 6f3f 3cb7 6dbd 929b e5bd
00000060: 41ab 90be b33c e23f bf10 58bc d68d c33b
00000070: 338a ce3f a314 453e 3e6b 81bd cb22 4c3e
00000080: 79dc bebe 5dac 993f a6e4 edbc 4531 6e3d
00000090: d091 ff3f a531 873e 208b 033d 45f5 87bc
000000a0: 3e27 8fbe cb8b 953f 3ec9 553d fe91 e2be
000000b0: c445 883e 9e99 763f 9d26 2cbd 9a4d bfbe
000000c0: 0bb3 a1bf 3d96 dabd 7598 d73e cef6 4ebf
000000d0: 9a1a fa3d 3c86 d2bd 2f28 d53c b615 a53c
000000e0: a168 b1bf 4329 c43f e358 e5bc 5db8 b7ba
000000f0: 271a 9dbd 6495 b43d f854 ef3c 3697 b83b
00000100: fde3 1ebe 06ce 183f 04e6 f53b 1569 22bd
00000110: 420b a8be bc2a f43b e60c 813b 1573 12be
00000120: 17f5 da3f c4cc cebf b00b 493d 9a82 3cbc
00000130: 7fd0 b13d 1a3b d5bd e628 45bd 1181 4dbd
00000140: 752d a23f df8e b13f 6f09 a03d 73f4 e33d
00000150: c04f 2cbd cf69 d9be d5eb 883d 1794 36bc
00000160: a5bd 093e 0068 243f 476b 5ebc 50d3 36bc
00000170: a5e0 1cbe 300d c1be 9e5b d0bd 950d bb3d
00000180: 3ff7 c3bf 02e5 d1bf e830 eb3d abaa babd
00000190: a972 64be c0c4 ed3d 3ca4 67bd ef0d 2d3d
000001a0: cc06 323d d9f3 033d 04c1 913b d072 d5ba
000001b0: 5c4a d23e 1b53 e43e f516 abbc 3c8b a4bd
000001c0: 6903 493e 6fb7 993e 1611 f2bd 372a 5cbc
000001d0: a735 d6bc 069d ecbe 631b c33d 0462 b0bd
000001e0: 009c 823c 9378 49be 6b3d 763d 5c40 613d
000001f0: e47b bcbe 4ff0 26c0 e330 e1bd 2730 e7bd
00000200: 36e8 dfbe 708e 0b40 634f abbd 9a90 5e3d
00000210: ccae 50be 35d9 bf3e 8225 c93d bef8 29bd
00000220: d0de 07bf 83a5 0440 c56b 8c3c 1e9f 653d
00000230: 20ed 1b3e 22f3 1bbf 55ec 07bc 0939 1e3e
00000240: d2a1 50bf 7f9d 0840 8ec0 54bb 8682 563f
00000250: faeb 8f3e d7d6 1ac0 7184 b0bc d8f6 433f
00000260: 1ab1 35bf 606f e1be fcec 57c0 a824 863e
00000270: 23cb 883e 0564 533f 1980 d9bd e9f9 e8be
00000280: 069c d8be d9e8 2cbf 5b08 72bc 4765 03bf
00000290: 2dd5 e13e 10ae 523f 77b3 27be 0442 7bbe
000002a0: 5c92 12bf 032d a4bf 1b5f 48be ca31 6cbe
000002b0: b18f 1c3f 96f6 053f b895 85be e9d8 ca3e
000002c0: 6a0a 69bf 340a dfbe 24ca e9be 7999 b43e
000002d0: 8cd9 e03d 43c0 2d3f 46c1 03be 647f 9abe
000002e0: fe4b f23e 09cc 21bf 273f cdbc d65c 79be
000002f0: b5a2 cd3e 6848 2f3f 3f04 fb3c b3c0 21bb
00000300: b87f 1c3f 7310 8fbf 3a66 f8bd 6c18 aaba
00000310: ef76 333f e480 293f 67dc 2abd b12c 38be
00000320: 501e 693f 96de 6fbe 00a8 e13c 92dc e1bd
00000330: c12f f4bf 9b10 843e 2220 76bf 7e53 803f
00000340: 8cd6 41be 90d0 dd3d 3df0 8cbc 4ca3 153e
00000350: f623 f7bd 760e 653e 3d22 383c f9f6 f53d
00000360: 854f 903e 96d0 1f3e ea11 64bd 509f 5dbd
00000370: a81e 00bc ac8f 93bd a763 b9bc 036f 33bd
00000380: 5a12 a43e cd56 583d 63fb 16bd 10f0 8bbe
00000390: 406b 313e da95 24bf bc77 31bd 15fd 8bbe
000003a0: 6376 9b3e d516 8abf a465 023e a926 bf3d
000003b0: a535 d43d a425 4b3e b247 b4bd d641 ec3d
000003c0: 9945 053f cd05 b4bf 07ab 883d 4871 03bf
000003d0: 59fa 5f3e e8b3 d3bd 61ea 833d 8706 14bf
000003e0: cd5f 133f f45c 4ebf 72fb 8cbd b5c3 0140
000003f0: 2c0e 47be a473 1ebf d3f8 b2bb 1ba0 0040

__linear_0.bias f4 [64]
0.8746736 0.67850435 0.1803522 -1.0686691 -0.6342252 -0.43365753 -0.4499409 0.01308951
-0.0259433 -0.27844507 0.30373824 0.8151995 -0.73346186 1.0728409 -0.009305073 -0.016902626
-0.24590412 -0.32189998 -0.4373514 -0.86449015 -0.47415087 -0.39344302 -0.51498425 -0.69749784
0.2608833 -0.4754724 -0.07020534 -0.46224117 -0.38086873 0.46766254 -0.72310764 -0.61576676
-0.50254124 -0.75433797 -0.55667293 -0.5122601 -0.16742039 0.27332628 -0.52553177 -0.082737245
-0.7538833 0.106810175 0.1172529 -0.79764277 -0.4065171 0.08219859 -0.45170745 -0.56947875
-0.21099705 -0.1185289 -0.9715418 -0.5659516 -0.43886274 -0.75880754 -1.379528 -1.0056872
0.086827405 -0.11308742 -0.4129421 -0.44298995 -1.6918422 0.35353446 -1.2073218 -0.31657565
00000000: 9cea 5f3f 76b2 2d3f 3fae 383e 26ca 88bf
00000010: 955c 22bf 5c08 debe a75e e6be 6275 563c
00000020: 0b87 d4bc 5a90 8ebe 9483 9b3e eab0 503f
00000030: 28c4 3bbf da52 893f 4e74 18bc 6077 8abc
00000040: 4ace 7bbe 13d0 a4be 86ec dfbe 3a4f 5dbf
00000050: e7c3 f2be 5d71 c9be 02d6 03bf 388f 32bf
00000060: 7f92 853e 1e71 f3be d1c7 8fbd e0aa ecbe
00000070: 3a01 c3be 7771 ef3e 951d 39bf e4a2 1dbf
00000080: 8ba6 00bf 4b1c 41bf 1e82 0ebf 7a23 03bf
00000090: 4070 2bbe 6cf1 8b3e 4089 06bf 2572 a9bd
000000a0: 7ffe 40bf 4bbf da3d 4a22 f03d 5132 4cbf
000000b0: 0223 d0be bc57 a83d 3346 e7be 5cc9 11bf
000000c0: 9c0f 58be 48bf f2bd f7b6 78bf 34e2 10bf
000000d0: 9eb2 e0be 3641 42bf 6094 b0bf 5cba 80bf
000000e0: 91d2 b13d 619a e7bd 266d d3be 94cf e2be
000000f0: 498e d8bf 7802 b53e 8589 9abf 3416 a2be

__linear_1.weight f4 [64, 64]
-0.09394984 -0.13727354 -0.16152085 -0.055698063 -0.10063877 0.052292995 0.04017101 -0.150293
0.09770766 -0.015792146 -0.023255447 -0.008978107 0.0059923586 -0.105916895 -0.03829316 0.0756608
0.0031021642 -0.059271477 0.025078902 -0.15666084 0.08210609 -0.15480335 -0.09036358 -0.09112396
-0.14201547 -0.09884358 -0.122840956 -0.14505237 -0.031123001 -0.08101684 -0.010182718 -0.054046534
-0.09469635 -0.034297425 -0.028449284 -0.0626782 -0.045253128 -0.09536516 0.05185238 0.048956547
-0.14052552 0.0055319197 -0.12856929 -0.0023737606 -0.14740995 -0.02170748 0.006331888 -0.09353372
-0.079570524 0.0035743194 -0.014931855 -0.11031104 -0.102071434 -0.08495787 -0.07037622 -0.00529254
-0.025966221 -0.13525425 -0.1401709 -0.06616967 -0.092142396 -0.03956175 -0.0024073077 0.06617747
-0.11951821 0.49626422 -0.11717128 0.022630718 0.025935864 -1.2463396 -0.58228356 0.08044851
-0.04694521 -0.06249976 -0.028073302 0.09468187 0.25983363 0.7561594 -0.22836533 0.045231156
0.21806282 -0.15113986 -0.11631319 -0.09245798 -0.03777745 -0.03339041 -0.26388055 0.10620799
-0.3192134 0.01699557 0.2629814 -0.13609134 0.060579363 -0.09330687 0.23689069 0.050645195
0.66205865 0.04613357 -0.24513021 0.05202161 0.18250912 -1.0553539 0.1639988 0.2702504
0.43334785 -0.08282816 0.1393892 0.20006438 0.014759855 -0.051192205 0.29582158 0.014342241
0.14489311 -0.061782822 -0.32178032 -0.068770245 -0.118121274 0.07981213 0.12093132 0.31797388
-0.004648925 0.028794378 -0.060045794 0.055336673 -0.15543292 -0.6879355 -0.7905695 -0.17675665
-0.115968525 -0.052698936 -0.13205825 0.06726618 0.022379342 -0.013689622 -0.17778134 -0.08444072
0.08256293 -0.09814693 -0.085100144 -0.0035131904 -0.030142864 -0.23723507 -0.0014558147 0.014761229
-0.14308329 -0.09178106 -0.071941055 -0.10509148 0.05786535 -0.1962666 0.02726081 -0.007173376
-0.09737874 -0.1632679 -0.11943078 -0.0059725214 -0.03603287 0.027461186 -0.09481311 -0.18722324
-0.11812799 -0.024261534 -0.004888401 -0.024889395 -0.1599181 -0.1794137 0.076804064 -0.068974026
-0.19821638 -0.15511736 -0.14318544 -0.10167604 -0.03704637 -0.1230202 -0.18194714 -0.024807902
-0.14593735 -0.08940858 -0.030938037 -0.15479043 0.07827051 -0.08146599 -0.10174767 -0.011544218
-0.008871977 -0.07284986 -0.103862785 0.02964073 0.10045976 0.028128982 0.005796692 -0.0016340209
0.283453 0.12893109 -0.67325747 -0.16410698 -0.30444914 0.19677337 0.02985819 -0.6889436
0.10727555 0.2188759 0.16154397 -1.1324617 0.12207828 -0.20910855 -0.19899975 -0.20411451
-0.06829507 0.18790652 0.37634572 -0.35441533 -0.15466228 -0.038078107 -0.12337862 -0.16691527
0.6589998 -0.3044174 0.0016990369 0.21871862 -0.45919192 0.20022392 -0.25681427 -0.03976988
-0.09590403 0.14883648 0.11981675 -0.23103985 -0.42094997 -0.33325255 0.012910227 0.061076198
0.53393626 -0.20905906 -0.25736648 0.14022157 0.013231697 -0.16913933 0.5759783 -0.089724846
-0.08323324 -0.3196919 0.24815577 -0.58911204 -0.13836774 0.051400173 0.66671556 -0.6266096
-0.26273173 -0.51994866 0.05203994 -0.58284634 -0.009734218 -0.13395165 -0.49944586 0.16029921
00000000: c668 c0bd 6f91 0cbe b965 25be a723 64bd
00000010: b31b cebd 2e31 563d 5b8a 243d 68e6 19be
00000020: f41a c83d 885e 81bc 3582 bebc e918 13bc
00000030: 8c5b c43b f5ea d8bd 4ad9 1cbd 0df4 9a3d
00000040: ae4d 4b3b a6c6 72bd 4572 cd3c b36b 20be
00000050: 3d27 a83d c584 1ebe 8a10 b9bd 339f babd
00000060: 816c 11be 816e cabd 0a94 fbbd 9c88 14be
00000070: aaf5 febc 28ec a5bd 6ad5 26bc e65f 5dbd
00000080: 29f0 c1bd 757b 0cbd 790e e9bc 6e5d 80bd
00000090: 585b 39bd cf4e c3bd 2963 543d a986 483d
000000a0: ece5 0fbe 1b45 b53b aba7 03be 1891 1bbb
000000b0: a2f2 16be e3d3 b1bc ba7b cf3b 9b8e bfbd
000000c0: dff5 a2bd 213f 6a3b bda4 74bc c1ea e1bd
000000d0: d40a d1bd 64fe adbd 6821 90bd 0b6d adbb
000000e0: 1db7 d4bc 1780 0abe f688 0fbe f783 87bd
000000f0: 27b5 bcbd 800b 22bd ecc3 1dbb 0e88 873d
00000100: f7c5 f4bd 5816 fe3e 7ff7 efbd 0e64 b93c
00000110: 7377 d43c 0e88 9fbf 8910 15bf 30c2 a43d
00000120: 9f49 40bd c0ff 7fbd fbf9 e5bc 91e8 c13d
00000130: ea08 853e aa93 413f 9ad8 69be 4e44 393d
00000140: dc4b 5f3e 68c4 1abe 9c35 eebd 9c5a bdbd
00000150: 87bc 1abd 62c4 08bd 5a1b 87be 9383 d93d
00000160: f06f a3be 4b3a 8b3c 80a5 863e 875b 0bbe
00000170: 1122 783d ac17 bfbd 7993 723e 5671 4f3d
00000180: ad7c 293f 8ef6 3c3d 6a03 7bbe 9d14 553d
00000190: ace3 3a3e d615 87bf 4def 273e 435e 8a3e
000001a0: c5df dd3e cfa1 a9bd 0bbc 0e3e addd 4c3e
000001b0: 52d3 713c ebae 51bd ed75 973e b8fb 6a3c
000001c0: dc5e 143e fc0f 7dbd 64c0 a4be 6ad7 8cbd
000001d0: 91e9 f1bd 8b74 a33d d7aa f73d 79cd a23e
000001e0: 0256 98bb 30e2 eb3c 94f2 75bd b5a8 623d
000001f0: cf29 1fbe 8a1c 30bf c362 4abf b2ff 34be
00000200: e880 edbd d7da 57bd 473a 07be dac2 893d
00000210: e254 b73c 704a 60bc 500c 36be 42ef acbd
00000220: c116 a93d 4201 c9bd fc48 aebd 8e3d 66bb
00000230: 2bee f6bc c0ed 72be 09d1 beba 15d9 713c
00000240: 6d84 12be b5f7 bbbd d555 93bd 343a d7bd
00000250: 3804 6d3d 1dfa 48be 1052 df3c a40e ebbb
00000260: 816e c7bd b32f 27be 2098 f4bd 24b5 c3bb
00000270: 3497 13bd 48f6 e03c 602d c2bd 73b7 3fbe
00000280: 16ed f1bd 20c0 c6bc e12e a0bb d8e4 cbbc
00000290: 92c1 23be 3ab8 37be 734b 9d3d 4142 8dbd
000002a0: 3cf9 4abe 16d7 1ebe 349f 12be 873b d0bd
000002b0: efbd 17bd 04f2 fbbd 5a50 3abe f139 cbbc
000002c0: 9a70 15be d81b b7bd c471 fdbc 6281 1ebe
000002d0: 4a4c a03d a4d7 a6bd 1561 d0bd f623 3dbc
000002e0: c55b 11bc 4f32 95bd 03b6 d4bd 1ed1 f23c
000002f0: d9bd cd3d c06e e63c 2df2 bd3b a52c d6ba
00000300: c020 913e 8306 043e 9a5a 2cbf a90b 28be
00000310: c2e0 9bbe f57e 493e 2a99 f43c 9c5e 30bf
00000320: 49b3 db3d 0121 603e c86b 253e 81f4 90bf
00000330: 2d04 fa3d 8d20 56be 97c6 4bbe 6503 51be
00000340: 49de 8bbd 916a 403e 63b0 c03e ed75 b5be
00000350: ca5f 1ebe caf7 1bbd eead fcbd d6eb 2abe
00000360: 36b4 283f 99dc 9bbe 38b2 de3a c6f7 5f3e
00000370: 341b ebbe 8007 4d3e 297d 83be bee5 22bd
00000380: 5569 c4bd 9768 183e 7c62 f53d b695 6cbe
00000390: c186 d7be 14a0 aabe 6b85 533c 092b 7a3d
000003a0: 0cb0 083f 9413 56be 8ac5 83be 3e96 0f3e
000003b0: c2c9 583c dc32 2dbe 5073 133f a9c1 b7bd
000003c0: 3076 aabd a8ae a3be 8c1c 7e3e 0cd0 16bf
000003d0: 46b0 0dbe fd88 523d dfad 2a3f 7d69 20bf
000003e0: c684 86be 5b1b 05bf d527 553d 6b35 15bf
000003f0: 457c 1fbc 9f2a 09be 5eb7 ffbe 7a25 243e

__linear_1.bias f4 [64]
-0.20809908 -1.2407529 -0.07297789 -0.24265946 -0.06912022 0.5784699 -0.015797438 0.8356963
-0.3442467 0.21769214 -1.5867556 0.050099332 -0.1732338 0.7232385 -0.0845828 -0.074852355
0.1647395 -0.19384247 -0.23997878 -0.101103455 -0.19371222 -0.22557093 0.025342507 -0.93142027
0.12798737 -0.1951251 -0.2440232 0.9002422 -0.28776103 -0.06503803 0.29508996 -0.037236955
-0.01789017 1.1299282 0.49754164 -0.22215194 -0.12569217 0.079974145 0.91013086 -0.20024133
-0.23938015 -0.1631589 -0.15834585 -0.06875935 0.097180694 -0.1805909 0.4665752 -0.15075481
0.37036353 -0.31923327 0.633047 0.34244674 0.3291868 0.9335885 -0.6748944 -0.06576389
-0.1674195 -0.5854143 -0.32157165 -0.22606581 -0.07902561 -0.38291046 -0.1670039 -0.5172218
00000000: ed17 55be fed0 9ebf 6f75 95bd b97b 78be
00000010: e78e 8dbd 9a16 143f a169 81bc 31f0 553f
00000020: 1a41 b0be b0ea 5e3e cf1a cbbf f534 4d3d
00000030: 3464 31be 2926 393f bf39 adbd 314c 99bd
00000040: 79b1 283e a47e 46be ffbc 75be 540f cfbd
00000050: 7f5c 46be 11fc 66be 179b cf3c 8f71 6ebf
00000060: 1f0f 033e e0ce 47be 38e1 79be 4676 663f
00000070: 6a55 93be a932 85bd 0816 973e c785 18bd
00000080: 688e 92bc 7da1 903f c7bd fe3e cc7b 63be
00000090: 73b5 00be 7cc9 a33d 56fe 683f 100c 4dbe
000000a0: 1220 75be 2013 27be 6a25 22be b4d1 8cbd
000000b0: ac06 c73d d2ec 38be f2e2 ee3e 785f 1abe
000000c0: 4aa0 bd3e 8b72 a3be 5e0f 223f 2e55 af3e
000000d0: 2c8b a83e a8ff 6e3f e1c5 2cbf 38af 86bd
000000e0: 0470 2bbe b6dd 15bf 0aa5 a4be cc7d 67be
000000f0: 2ed8 a1bd d70c c4be 1203 2bbe a668 04bf

__linear_2.weight f4 [64, 64]
0.10206511 -0.24286981 -0.04653075 -0.07232482 0.021829065 -0.3275994 -0.14764202 -0.1276729
0.084786065 0.106194645 -0.036333866 -0.14154714 -0.13551694 -0.20320731 -0.059840795 -0.08363492
-0.121869504 0.053199846 -0.14026138 0.0017024595 -0.07643619 0.10054113 -0.018861027 -0.40206462
-0.12805608 0.13607767 0.04698655 0.008626721 -0.011807113 0.009757619 -0.10121157 -0.029026285
-0.12404617 -0.1944245 0.0632077 -0.088515766 -0.06570724 -0.08292441 -0.14808674 0.13564977
-0.0722865 0.13751382 -0.005673595 -0.20382768 -0.16218242 -0.03150668 -0.1563255 -0.1428406
-0.20543997 0.038142476 -0.05992252 -0.054344784 -0.046601295 -0.061978675 -0.06746515 -0.0629022
0.0812333 0.0085321795 -0.04711622 -0.20203632 -0.010761685 -0.019214757 -0.055943884 -0.10040272
-0.040033698 -0.118242696 0.022771087 -0.008575901 0.014648855 -0.12051632 -0.096780516 -0.094889745
-0.14653361 -0.120253764 -0.0677292 0.031016633 -0.07020028 -0.09439858 0.057052 0.008274391
-0.067826934 -0.03618163 -0.0011088192 -0.09444311 -0.11634225 0.019263003 0.069759816 -0.09938407
-0.08861365 0.08636739 0.13469535 -0.028780688 -0.13632435 0.017659351 -0.13719916 0.011195794
-0.10550845 -0.0074619055 -0.044883966 -0.006889865 -0.08174458 0.016959744 -0.1812866 -0.0058852434
-0.10518144 0.0026984871 -0.003374167 -0.18486206 -0.06317562 -0.026825031 0.029148627 -0.06416816
-0.10246003 0.0122825205 -0.06425618 -0.04806295 -0.104587585 -0.095244564 -0.093183935 0.049133703
-0.097253874 -0.04986215 -0.11464396 -0.0924049 0.00739806 -0.016732974 -0.022464996 0.03852987
-0.012354141 -0.332359 -0.08822007 -0.47399548 0.013817635 -0.040239654 -0.015063916 -0.2611919
-0.07156679 0.1223042 -0.021715086 -0.1598824 0.11405182 -0.09020284 -0.0004422624 -0.01726293
-0.16689874 0.04917447 -0.09403092 -0.113106675 0.11110901 0.016736524 -0.1344591 -0.008854613
-0.27120033 -0.033636473 -0.09354561 -0.0015685185 -0.08512708 0.016129084 -0.034135975 0.08851666
-0.03273757 -0.18794961 -0.09539232 -0.20972191 0.054812815 -0.048175443 -0.17418502 0.0046032984
-0.0886763 -0.055421516 -0.17949869 -0.024208972 -0.09168118 -0.13468917 -0.06697677 -0.006527597
-0.1456629 -0.067422844 -0.4005634 -0.07223186 -0.12697858 -0.070595995 -0.12383858 0.051049598
0.022423526 -0.030160028 -0.04164032 -0.092434436 -0.077541865 0.09131269 -0.06301173 -0.20005547
-0.04450794 -0.32116127 -0.15247898 -0.04241886 -0.121695064 -0.034577973 -0.062394865 -0.47583252
-0.01841997 -0.043036286 -0.047587737 -0.2366059 0.010972246 -0.14937836 0.0016265125 0.06815737
-0.21744679 -0.0796316 0.06981502 -0.033692133 0.044144683 0.10350342 -0.024538463 0.00798745
-0.23921147 -0.004640933 0.008286977 -0.23153047 -0.0020080341 -0.016432121 0.0043635946 0.009592593
0.013474043 0.012933917 -0.0020131452 -0.15136412 0.026423903 -0.092101604 -0.18813752 0.077438116
0.04461501 -0.07197058 -0.019194892 -0.047786336 -0.019906828 -0.10389322 -0.037019666 -0.117255695
-0.13215587 -0.067339 -0.115045056 -0.0035769292 -0.07056584 -0.07813761 -0.07654078 -0.08602621
-0.0054248534 -0.07950095 0.020609088 -0.17289445 -0.02091915 -0.0038119596 -0.26335332 -0.12953925
00000000: 8307 d13d ddb2 78be 0797 3ebd 091f 94bd
00000010: ded2 b23c 1cbb a7be 782f 17be afbc 02be
00000020: 51a4 ad3d 947c d93d d2d2 14bd bcf1 10be
00000030: f4c4 0abe 9415 50be 9f1b 75bd c948 abbd
00000040: b896 f9bd 15e8 593d aea0 0fbe 1025 df3a
00000050: 948a 9cbd 82e8 cd3d 7182 9abc 6adb cdbe
00000060: 2221 03be f257 0b3e f874 403d 1757 0d3c
00000070: 9f72 41bc 6cde 1f3c 0348 cfbd 88c8 edbc
00000080: eb0b febd 3717 47be 0a73 813d c147 b5bd
00000090: 8491 86bd 46d4 a9bd 0da4 17be c6e7 0a3e
000000a0: f20a 94bd 6cd0 0c3e 90e9 b9bb 34b8 50be
000000b0: 2613 26be 260d 01bd cb13 20be ce44 12be
000000c0: db5e 52be 493b 1c3d 5171 75bd a398 5ebd
000000d0: 00e1 3ebd 5add 7dbd 2b2b 8abd ded2 80bd
000000e0: a55d a63d 8eca 0b3c f0fc 40bd 9ce2 4ebe
000000f0: c751 30bc 4468 9dbc 6a25 65bd f19f cdbd
00000100: 60fa 23bd 3a29 f2bd 6e8a ba3c f081 0cbc
00000110: c001 703c 43d1 f6bd dd34 c6bd 8e55 c2bd
00000120: e80c 16be 9b47 f6bd 9bb5 8abd 9816 fe3c
00000130: 2ac5 8fbd 0b54 c1bd 5caf 693d 5091 073c
00000140: d9e8 8abd 3033 14bd cc55 91ba 646b c1bd
00000150: d844 eebd 72cd 9d3c 3cde 8e3d e089 cbbd
00000160: 137b b5bd 63e1 b03d 94ed 093e 7ac5 ebbc
00000170: 9c98 0bbe 58aa 903c f07d 0cbe 906e 373c
00000180: d014 d8bd 0083 f4bb 40d8 37bd 60c4 e1bb
00000190: b469 a7bd 29ef 8a3c 32a3 39be 00d9 c0bb
000001a0: 5e69 d7bd 1ad9 303b 2121 5dbb 7b4c 3dbe
000001b0: 3862 81bd 2bc0 dbbc 1ac9 ee3c 996a 83bd
000001c0: 90d6 d1bd a03c 493c be98 83bd a8dd 44bd
000001d0: 0432 d6bd 950f c3bd 38d7 bebd 6c40 493d
000001e0: 0a2d c7bd 413c 4cbd 74ca eabd c83e bdbd
000001f0: 6d6b f23b 9713 89bc 8308 b8bc 7fd1 1d3d
00000200: 0669 4abc f52a aabe b9ac b4bd 89af f2be
00000210: 5d63 623c 56d2 24bd a5ce 76bc f2ba 85be
00000220: 9c91 92bd a07a fa3d d6e3 b1bc 36b8 23be
00000230: 0094 e93d 44bc b8bd 74df e7b9 fd6a 8dbc
00000240: 81e7 2abe 2b6b 493d 4893 c0bd 79a4 e7bd
00000250: 1f8d e33d 091b 893c a5af 09be f012 11bc
00000260: c5da 8abe 66c6 09bd d794 bfbd bf96 cdba
00000270: 1b57 aebd 2421 843c 2ad2 0bbd 3948 b53d
00000280: d517 06bd dd75 40be 0c5d c3bd 57c1 56be
00000290: 6783 603d 9d53 45bd 8f5d 32be 44d7 963b
000002a0: ec9b b5bd ac01 63bd 81ce 37be e551 c6bc
000002b0: 58c3 bbbd f5eb 09be 1e2b 89bd 74e5 d5bb
000002c0: a828 15be fd14 8abd a516 cdbe 4cee 93bd
000002d0: ac06 02be a294 90bd 159f fdbd 6219 513d
000002e0: 8bb1 b73c 2a12 f7bc 0a8f 2abd 444e bdbd
000002f0: 45ce 9ebd 2602 bb3d 4b0c 81bd 57db 4cbe
00000300: f54d 36bd 406f a4be 7323 1cbe 66bf 2dbd
00000310: 433b f9bd a2a1 0dbd c291 7fbd 52a0 f3be
00000320: 7ae5 96bc d146 30bd 5ceb 42bd d148 72be
00000330: efc4 333c a4f6 18be b430 d53a 1796 8b3d
00000340: 5faa 5ebe e415 a3bd 2dfb 8e3d c300 0abd
00000350: 0ed1 343d 9af9 d33d e304 c9bc cbdd 023c
00000360: daf3 74be f812 98bb 1ac6 073c 5316 6dbe
00000370: 3999 03bb a89c 86bc 7cfc 8e3b 402a 1d3c
00000380: 3cc2 5c3c c8e8 533c f9ee 03bb 32ff 1abe
00000390: f176 d83c c49f bcbd 1fa7 40be e097 9e3d
000003a0: 3bbe 363d 5065 93bd 9b3e 9dbc 9bbb 43bd
000003b0: a513 a3bc f8c5 d4bd efa1 17bd c123 f0bd
000003c0: de53 07be 08e9 89bd be9c ebbd ea6a 6abb
000003d0: d384 90bd 9c06 a0bd 6ac1 9cbd 822e b0bd
000003e0: f8c2 b1bb 65d1 a2bd 64d4 a83c 3e0b 31be
000003f0: a35e abbc 12d2 79bb 3fd6 86be f0a5 04be

__linear_2.bias f4 [64]
-0.49457237 -0.2940779 -0.05104404 -0.30411544 -0.5205542 -0.51029164 -0.29772294 -0.53162146
-0.55879265 -0.59751403 -0.4699665 -0.34861436 -0.37012208 -0.46638525 -1.1687503 -0.27595344
-0.25939924 -0.41847053 -0.45913836 -0.28808838 -0.6466149 -0.5453024 -1.0526357 -0.18142945
-0.25986415 0.6946016 0.79166555 -0.37772867 -0.5550084 -0.5170272 -0.44623908 -0.5673479
-0.76295257 -0.5337758 -0.3651634 -0.38544905 -0.5740238 -2.0206423 -0.42383558 -0.4960111
-0.3317349 0.29907173 -0.41250178 -0.2659359 -0.6333422 -1.5624883 -0.10302616 -0.38243777
-0.89966244 -0.51678455 -0.6538536 -0.49291882 1.0482203 -0.91135955 -0.69631946 -0.2548832
-0.80577785 1.107087 -0.7039063 -0.47722328 -0.559624 -0.38913873 -1.7704405 -0.5625181
00000000: 9738 fdbe 6191 96be 8e13 51bd 05b5 9bbe
00000010: 0a43 05bf 79a2 02bf 246f 98be 5818 08bf
00000020: 090d 0fbf aef6 18bf 739f f0be 957d b2be
00000030: a480 bdbe 0cca eebe 9c99 95bf c549 8dbe
00000040: facf 84be c541 d6be 2f14 ebbe 5280 93be
00000050: 8e88 25bf f098 0bbf c4bc 86bf a4c8 39be
00000060: ea0c 85be 69d1 313f 98aa 4a3f a765 c1be
00000070: 0815 0ebf e55b 04bf 7379 e4be b63d 11bf
00000080: dc50 43bf 88a5 08bf b2f6 babe 9459 c5be
00000090: 39f3 12bf 3452 01c0 fa00 d9be 2bf5 fdbe
000000a0: 28d9 a9be ee1f 993e 6f33 d3be c028 88be
000000b0: b722 22bf 9eff c7bf 61ff d2bd e2ce c3be
000000c0: 4750 66bf fe4b 04bf f362 27bf db5f fcbe
000000d0: 152c 863f dc4e 69bf fe41 32bf 0d80 82be
000000e0: 7547 4ebf 07b5 8d3f 3433 34bf 9c56 f4be
000000f0: 8543 0fbf 313d c7be cb9d e2bf 3001 10bf

__linear_3.weight f4 [1, 64]
0.03758131 0.039385125 -0.12729912 0.016997473 0.02063776 0.0023456092 -0.011968697 0.014480884
0.0135558015 0.023306573 -0.026851786 0.0032691956 -0.004376583 -0.011618098 -0.042767234 0.02040052
-0.012501209 0.015208137 -0.014087152 0.027680479 -0.013836443 0.016093578 0.00022033772 0.023639347
0.02068744 -0.020164514 -0.1624073 0.030934267 0.021403883 0.028345203 0.018732129 -0.017705172
0.00685127 0.015263924 0.026771719 -0.03177152 -0.00068525685 0.05376703 -0.014047646 0.0074114613
0.022318464 0.014068404 -0.014129683 0.017956892 -0.015611802 0.027867122 -0.006049875 0.016089534
0.014221575 0.06697199 0.006183425 0.009502357 -0.035099242 0.0047133514 -0.009364382 0.006329611
-0.0300904 -0.026164273 -0.027604586 0.0887552 0.013528306 -0.019441906 -0.010670593 0.029868519
00000000: dcee 193d 4c52 213d b35a 02be 493e 8b3c
00000010: 8510 a93c cbb8 193b 5b18 44bc 3b41 6d3c
00000020: 2719 5e3c 6ded be3c 47f8 dbbc 0040 563b
00000030: 7069 8fbb d659 3ebc b22c 2fbd fe1e a73c
00000040: dfd1 4cbc 8d2b 793c cccd 66bc 2cc2 e23c
00000050: 40b2 62bc aed6 833c 750a 6739 4ea7 c13c
00000060: b578 a93c 0d30 a5bc 194e 26be dc69 fd3c
00000070: 3257 af3c 3334 e83c 1f74 993c 700a 91bc
00000080: 9e80 e03b 8a15 7a3c 5d50 db3c da22 02bd
00000090: cfa2 33ba d13a 5c3d 1928 66bc d8db f23b
000000a0: 36d5 b63c 2a7f 663c 3080 67bc 551a 933c
000000b0: a5c8 7fbc 9749 e43c 083e c6bb 33ce 833c
000000c0: 9c01 693c 9c28 893d 549e ca3b c6af 1b3c
000000d0: 39c4 0fbd 7572 9a3b 116d 19bc a068 cf3b
000000e0: 2480 f6bc 7556 d6bc 0323 e2bc 49c5 b53d
000000f0: d4a5 5d3c a244 9fbc b6d3 2ebc d3ae f43c
